projects/my_data/model/model.pt (torch, 492241 bytes, 16 tensors)

en1.weight f8 [200, 23]
0	0x3f6b1fa43c9a2b0b	0.0033109863041479496
1	0xbf88fb1178cbf95e	-0.01219762468235491
2	0x3f95663e50d1fdb0	0.02089784019744706
3	0xbf91f9fc638f55c1	-0.017555183006910505
4	0x3fe3f9b2b8b0be2c	0.6242307288393412
5	0x3f971a3a5bb0c0af	0.02256098923334154
6	0x3f9acb33be0cdcb1	0.026165779566522832
7	0xbfbed8edf26bfe8c	-0.1204975811815478
8	0xbfc1beb740721d99	-0.13863268515363528
9	0x3fc2d95fe2de7c75	0.14725874497978322
10	0xbfbc91bf2b9ec17a	-0.1115989190573198
11	0xbfd02f421066f278	-0.2528844032456514
12	0x3fb412f738f67722	0.07841439381305951
13	0xbf9cd5cac062f7a4	-0.028159301750512747
14	0xbfcead0bc4294818	-0.2396559436625132
15	0x3fc48d71a7f647a7	0.16056652737875973
16	0xbfadf5549ec62dab	-0.05851234853897876
17	0x3fb4612b21372fae	0.07960767327239068
18	0x3f97e50212ac0857	0.02333453406300409
19	0x3fafc8b66767aeaa	0.06207818996685195
20	0xbfb41f68cec17dc0	-0.07860426948308596
21	0x3f8650b6fede437f	0.010896138813935028
22	0xbfd46a76af94c338	-0.31899802347747963
23	0x3fc3c5e213a4010c	0.15447641333594964
24	0xbf72b8fc5e74c974	-0.004570947471892562
25	0x3fa4b7503777f726	0.040461069842406425
26	0x3fb88cb62d24fb20	0.09589708902511207
27	0xbfb39d1e2093bc99	-0.07661617560710211
28	0x3f85cb58eff2c281	0.010641760656967538
29	0x3fb405b4bf28a465	0.07821206728898884
30	0x3face718966c1c68	0.0564506229039175
31	0x3fd094e254f6f8a1	0.25908716485344924
32	0x3fc145f1104ec3db	0.13494694992326015
33	0x3fc3240db153d3f5	0.14953776510779418
34	0xbfb5641e311fc5e1	-0.08355892848319214
35	0xbf93927eaf3e6845	-0.019113521047622112
36	0x3fca8ca654eeaaba	0.20741728922924613
37	0x3fd220f16cfb90b1	0.2832606853755904
38	0x3fc194a7b9ad43c3	0.13734909597635978
39	0x3fa26cebab33234a	0.03598724808541094
40	0xbfb0b3d54ecfa452	-0.06524403738116405
41	0x3fd6a4950398c5bc	0.3537952933430366
42	0x3fa6c92a047d11d6	0.04450351052085792
43	0x3fcd440f75a48e57	0.22863953823353952
44	0xbfb5f2619d2400a8	-0.08572969519082341
45	0xbfa2e5fd3773ced2	-0.03691092779072637
46	0x3fa8b9cdebb8025c	0.04829257490564906
47	0x3fb623575b5e3410	0.086476764494549
48	0xbfc6998d813948da	-0.17656105813745776
49	0x3face9de9312592e	0.056471782162747494
50	0x3fbbbb6aec07bf0e	0.10832851660211082
51	0xbfbb11a0e2eb93c0	-0.1057377389912082
52	0xbfc5ff241a30c1cd	-0.17184878615218083
53	0x3fad0c56a50e7829	0.05673475994920835
54	0xbf973b6c174d0b77	-0.022687615320374967
55	0xbfb35d0b7dc3bdb9	-0.07563850231576098
56	0x3fc73c966a7c5d69	0.18153648566724748
57	0x3f8cbb3505be4138	0.014028944242256189
58	0x3fae650ab4676c33	0.05936463787266923
59	0x3f5b8f8714dcddf3	0.0016821688800073814
60	0x3fbbb37436923dee	0.10820700008684245
61	0x3f77cc6a87bd9efb	0.005810180791605775
62	0x3fc0a74139ba005e	0.13010421103172382
63	0xbfbc6cd1eeb44238	-0.11103546216714555
64	0xbf72e23512fcdfee	-0.004610259362202369
65	0xbfacfee5642de977	-0.05663220260517481
66	0x3faaae23b2b66864	0.05210982853459781
67	0xbfc247aba52ad44e	-0.14281220974740666
68	0xbfb5bf2d90212c6f	-0.08494839447773626
69	0xbfc3ceaa4269d77e	-0.15474441759914365
70	0xbfa2b1e390e37d67	-0.03651343482647001
71	0xbf70ab0f78a853b0	-0.00406938594325805
72	0x3f958b6178ed9590	0.021039507871497387
73	0xbfc13ff9d4a81175	-0.1347648895608803
74	0x3f73c7e6d3513caa	0.00482931295580539
75	0xbf1057ed09bdfdf8	-6.234535470461117e-05
76	0x3fc095f839bd2c6e	0.12957670993123166
77	0xbf999e3879177294	-0.025017626181453936
78	0xbfc57cc7db5e9b36	-0.16787050448803037
79	0xbfa76d33aec19b19	-0.04575501926665577
80	0x3fba0e57f344b7cc	0.10178136529131548
81	0x3f4e1aa370bd118e	0.0009187028931383777
82	0xbfba22d2b4ff1979	-0.10209385794505534
83	0x3fe4c48f0c850765	0.6489939922832774
84	0x3fd85f9bd635bdff	0.3808354942220546
85	0xbfaf3ff3819f9ce7	-0.06103478390996902
86	0xbf8537e50f6a683a	-0.01036051705641593
87	0xbf8ff5481a416562	-0.0156045563709763
88	0x3fc1abe0976a3abc	0.13805777924831897
89	0xbfa8eab71c3d1c26	-0.04866573543272805
90	0x3f968818c7adf8a0	0.022003543078874643
91	0x3fb9efcbf5d65c2e	0.10131525756729395
92	0xbfc3e9aa6aa7a10f	-0.1555684109473607
93	0xbfc1b7580af4cddd	-0.1384077123162645
94	0xbf60e406b45bcd66	-0.002061856360222758
95	0x3fb0148a8ed63e09	0.06281343447903266
96	0xbfa70e223bd07945	-0.045029706765705536
97	0xbf1dce99164f40fe	-0.00011370477075378982
98	0xbfc6f3a505a5193c	-0.17931044364576987
99	0x3faa40aac93da7f1	0.05127462107232351
100	0x3f9751b46c31c1e7	0.022772616485271426
101	0xbfc7deb32a00bc2f	-0.18648376036569078
102	0xbfc72a8dfdff2da9	-0.18098616506754908
103	0x3fc34a0885c0e2c9	0.150696816739375
104	0x3faa2bb8bf9fed27	0.05111481990021565
105	0x3fa39ab675fc645c	0.03828973951585432
106	0xbfb515c2021c5b90	-0.08236324836285136
107	0x3fb3f64655e8ebed	0.07797660443695494
108	0x3fb29c7c05d1a1cd	0.07270026342451459
109	0x3f772d0a86931356	0.0056581889304581825
110	0xbfaa065d9ce512da	-0.05082981624813039
111	0x3fb1c0e4c73e3f1d	0.06934957374891977
112	0x3fc2c922aca4780c	0.1467631667118784
113	0x3fb704da354f02b0	0.08991779138069478
114	0xbfbe93b5c43add75	-0.11944137612123547
115	0x3faffac24f14b3e4	0.062460014489580634
116	0x3fbe1f76a28a791f	0.11766759365352585
117	0xbf9730deac079fcc	-0.022647361039986255
118	0xbf6a534a83204a1b	-0.003213544398940072
119	0xbfc16e4a62092396	-0.13617830073260667
120	0x3fc6aafdbb0f9367	0.17709323533849927
121	0x3fc67ae8e727ea43	0.17562590872678827
122	0x3fa3f44d2819355c	0.038973246712525195
123	0x3fa86416d7dee6d8	0.047638620234875695
124	0x3f8a2e8d971f067d	0.012784105467179114
125	0xbf8cc8dfaef9070f	-0.01405501129841327
126	0xbf9f6f6a4b24c720	-0.030698452793507802
127	0x3fbfa5682bbe0db4	0.1236176592629395
128	0x3fbf5ea4f8e2ee7b	0.12253790928201085
129	0x3f8ceca6afcf9e40	0.014123251190496622
130	0xbfc1b282cd55a880	-0.13826022173026686
131	0x3fb969a506ab8af4	0.09926825917095156
132	0xbfbe0a3fe8419711	-0.11734389705960903
133	0x3fb265695c0c63a6	0.07185991761470109
134	0xbfb5e1e3404c7510	-0.0854780227641252
135	0xbf99779344024c97	-0.024870205903948586
136	0x3fbfa5ce9c48a9d9	0.12362376513980368
137	0xbfcb71f254aa169c	-0.21441487440113327
138	0x3fa88f1d014cded2	0.04796686783668992
139	0x3fd935e221374c86	0.3939137768149482
140	0x3fc87723f4e10f13	0.1911358781527431
141	0x3fb803a6b484896b	0.09380571276827758
142	0x3fb128284ac4ad67	0.06701900315663566
143	0xbfac94c384b42e1f	-0.05582247729224953
144	0x3fbec9321b51cac9	0.12025750319461816
145	0x3f89ceaf75dfe7bd	0.012601252350567077
146	0x3fc2203009d10df8	0.14160728911711806
147	0x3fc9e1a946e23576	0.20219913445582066
148	0xbfba6be067816be3	-0.10320856596938159
149	0xbf84497a44f3f6dc	-0.009905772427824137
150	0x3fcac9c1044fa560	0.20928204260352867
151	0xbf99a30dbafedd94	-0.02503606275396704
152	0x3fc5bb7457f344ca	0.1697831563419981
153	0x3fca984c7bf7c5d8	0.20777278950804035
154	0xbf7a60071da99be3	-0.0064392354930537824
155	0x3fc9f296be54d7bc	0.2027157239296552
156	0x3fd28b3b3ed68c03	0.28974801193743377
157	0x3fd1cdb6953c31ef	0.27818073819869843
158	0xbfb2b43b2f018413	-0.07306260964971072
159	0x3fd50809378af549	0.3286154787454803
160	0xbfc37540bd96dddb	-0.15201577431956434
161	0x3f8f8e255a5a955a	0.015407840556984343
162	0x3fd0b0299642b50f	0.26075210260280896
163	0xbfb093fff9100a19	-0.06475829916602328
164	0xbfc275ffba5dd9a7	-0.14422604179317242
165	0x3fc2cc9eab096c4e	0.1468695006504696
166	0xbfa8b4db78344540	-0.0482548317178364
167	0x3fc43086fa420c25	0.15773093433026122
168	0xbfb492895f260692	-0.08036097119295452
169	0xbf97837b952b5de9	-0.02296250436742567
170	0x3fc00bd7ea0aac5c	0.12536143234078423
171	0x3fb1f905d12f3844	0.07020603520433705
172	0x3fa2f6ce5b019f40	0.037039230927631284
173	0xbfafd5de40958cc6	-0.062178559669314334
174	0xbfc6610945a5ef1c	-0.174836310394192
175	0x3fa5684c9354cc00	0.04181136415936493
176	0x3fbf22f82cca89d4	0.12162734120878521
177	0x3fcbdfc58d2e4710	0.21776646989433646
178	0x3f8d728f05aa99ab	0.014378659592080142
179	0x3fb9f632a78e8a16	0.10141293135397009
180	0x3fc2c6e4272f0945	0.14669467843311615
181	0x3f8090231b225eba	0.008087419763156734
182	0x3fbafc9b4c8a23cf	0.10541697138445659
183	0xbfcce712c2d7e32f	-0.2258017970450736
184	0x3fbf4813099d1b5d	0.12219351753911441
185	0x3fdc75e26f182390	0.4446950993447496
186	0x3fdf86c7621b8d35	0.4926012476045856
187	0x3fc9637ddc02f878	0.1983487438464555
188	0x3fd1bb9ce88a3334	0.27707598408669587
189	0x3fd15ee169fc7038	0.27141604757503357
190	0x3fadc53eaf3d8996	0.0581454838673096
191	0x3f883f41a25c5dcd	0.011839401976927367
192	0xbfa3ad6c5dfe03cb	-0.038432489846861616
193	0xbfb116474b55409e	-0.06674619282898894
194	0xbfc0a2a4e189b40a	-0.12996350300400678
195	0x3fb45f1afd55b87a	0.07957619366581695
196	0x3fd3c264c29e432f	0.308739843422745
197	0x3fc5405573c20b16	0.16602581169362257
198	0x3fc5c29de3e35ea1	0.17000173213340466
199	0x3fc910b0cbe9f276	0.19582185703974958
200	0x3fac9d4b1e17c093	0.05588755361884625
201	0x3f9f90333ff2da05	0.030823517587771593
202	0xbfa29cb9210f6cc0	-0.03635195282523673
203	0x3f8af15d3de080d8	0.013155678225360054
204	0x3fd0e5fded405a39	0.26403759163932566
205	0x3fcc43578c9ee20e	0.22080511442415268
206	0xbfda63b4fc94ace6	-0.412335631047155
207	0x3fc6a6c180f9e2b3	0.17696398542081723
208	0x3fa03c13d70243a6	0.03170835494632422
209	0x3f826eaa0f310b0d	0.009000137890443871
210	0xbfabd3274b755141	-0.05434534832116578
211	0x3fbab6f5bced78e1	0.10435424673548567
212	0x3fc577a4af0f0816	0.1677137236384289
213	0x3fb4dd9466980ed1	0.08150603775726074
214	0x3fc8ddec0d3bf81b	0.194272524320639
215	0x3fb1443a3889d584	0.06744731788952235
216	0x3fc3a61af29cf6e0	0.15350663038582635
217	0x3fc19399b1dbf493	0.1373169058278206
218	0xbfc366fa9017b796	-0.15158016238950428
219	0x3f9eec4d355aa9d7	0.030198294049719934
220	0x3fc26c6ab96a81a2	0.1439336209632645
221	0x3fcdbb9643fa0dd5	0.2322872001569595
222	0x3fbb9f25d7b40722	0.10789715305511696
223	0xbfa6c51e9db0a2bf	-0.04447265314985804
224	0x3fa54d26d57eb74c	0.0416042457212443
225	0x3fd72bada0f34793	0.3620409080295925
226	0x3fbcd165c7dd0893	0.11257015351751169
227	0x3fbe07c099521a4b	0.11730579131299483
228	0xbfc18fd690032ccc	-0.1372020915208395
229	0xbf6f7ea9858fc79e	-0.003844576928252643
230	0xbfba9cd4963c42a8	-0.10395554225784542
231	0x3fdda1eb707b9c27	0.4630077932801577
232	0x3fdb125284ff4d11	0.42299330699934595
233	0xbfbda880a8deb8e6	-0.1158523952751441
234	0x3fbb4d124a216e81	0.106644766901292
235	0x3f87a1c8a7011f89	0.011539046856469575
236	0x3fc823289ceccfbc	0.1885729566798754
237	0x3fd8c0f8ba20c690	0.38677805115285313
238	0x3fbc654f4c555a58	0.11092086423500669
239	0x3fd12d8a4740b678	0.2684045501544925
240	0x3fd275bad1e532cb	0.28843565461719994
241	0x3fd57927059c6d9e	0.3355195574565303
242	0x3fbffd7b36da768b	0.12496156777566562
243	0x3fd46fdbf70f27fa	0.31932734610438696
244	0x3fc6bd46d10de694	0.17765126426438782
245	0x3fc1b42d357099e7	0.13831105336539837
246	0x3fbec969d1e68810	0.12026082396053561
247	0x3fc46b7c6e0d0d51	0.15953021405776238
248	0x3fc05bf54cadaeb3	0.12780634159149926
249	0xbfa3534c275fb4bc	-0.03774488430631481
250	0x3fbcde713dc58a1c	0.112769200879065
251	0x3fd04f95c37ca71c	0.2548574837734223
252	0xbfdc0f73286f3e9a	-0.43844298313795493
253	0x3fc10a8ed1d5163b	0.13313470121117796
254	0x3fd83479f0c291b1	0.3782029009983275
255	0x3fe1b3fab89edb2c	0.5532201391095888

en1.bias f8 [200]
0	0xbfbc19956b591690	-0.10976537581253809
1	0x3fa7d183985eb288	0.04652034029945634
2	0xbfc53e7a75d0c9d9	-0.16596918823922982
3	0xbfa2b1249d47ac59	-0.03650774402543595
4	0xbfb56716f023f49f	-0.08360427248767842
5	0x3f73995b09e909e0	0.004784923191041263
6	0xbfd595c749bde51f	-0.33726675225587316
7	0xbfad0d2d9715dbbc	-0.05674116582206731
8	0xbfc222e08ad766db	-0.14168936519018058
9	0x3f5ca6b0f9e63e03	0.0017487266810326536
10	0xbfe01d510f7800b8	-0.503578691685127
11	0xbfdf66127287b354	-0.4906049841363729
12	0xbfdd280629ad129f	-0.4555678755753351
13	0xbfd916def46fd97f	-0.3920209300116752
14	0xbfc6ce23a4320f08	-0.17816586987839167
15	0xbf94042fdabf66e0	-0.019547221876428433
16	0x3f9bddb7a314f15b	0.027212972000812168
17	0xbfbe76b98737bda9	-0.11899909545149136
18	0xbfc19449f801bd1b	-0.13733791932779912
19	0x3fbb47052ec8d699	0.10655243293953233
20	0xbf95de5e878b76c9	-0.02135608389186564
21	0xbfc24032280496eb	-0.14258410409927733
22	0xbfbd35b3a7de1ad6	-0.11410067413644795
23	0xbfca144ba9c94d3d	-0.20374437132213954
24	0xbfde3d2aa3c40b23	-0.47248331063035404
25	0xbfb55875f94a08a3	-0.08338105522310228
26	0x3faedacb4f24c398	0.060263017092785975
27	0xbfbe244541bbf835	-0.11774094443168866
28	0x3fa315bfcffc6ce0	0.03727530874149365
29	0x3f821572aa8f1cdd	0.008829971151398325
30	0x3f802d40418d8508	0.007898809433472667
31	0xbfa4fdf0f03af814	-0.04099991734027256
32	0xbfb407a16f52ec4b	-0.07824143379086583
33	0x3f85416d561f898f	0.010378698530932677
34	0x3fa022de0f89d1de	0.03151601733853558
35	0xbfd26cedf4e87e78	-0.2878985301667636
36	0x3f638d16da6b5b14	0.002386612544209918
37	0xbfb2b97eaa7801d0	-0.07314292585215942
38	0xbfbe92378bd55d8d	-0.11941859401610184
39	0x3f826316ddcd6fec	0.008978060382723606
40	0x3f9fb5f11c64ef04	0.030967490537690004
41	0xbfd6a9d1df90dbf6	-0.35411497910121115
42	0xbfb4895e75f8ded1	-0.08022108440570298
43	0x3fb20d54ee5767cc	0.07051592654116162
44	0x3fb408c616b94992	0.07825887732295758
45	0xbfc54a76d98abf20	-0.1663349687782949
46	0x3fba45fe8c7938a7	0.10263052873162569
47	0xbfae7c6f90f1678a	-0.05954311985324441
48	0xbfbc0652aeb9108a	-0.10947148099609386
49	0xbfdfd150e1879c74	-0.4971506311835079
50	0x3fb1b51249548363	0.06916918077741978
51	0xbf7877950c946b7a	-0.005973417494966488
52	0x3fb846647eda5685	0.09482410523409086
53	0xbfb7b8c5c3750aed	-0.09266315481094596
54	0x3f7d9ac46a16b398	0.007227675670418508
55	0x3fa29cbc5b353f8d	0.03635204900149267
56	0xbfd41485b62fe087	-0.3137525824709048
57	0x3fad35f305c548f1	0.05705222554628787
58	0xbfa14c9b73b22c49	-0.0337875918131308
59	0xbfc57c900e6069a4	-0.16786385251982694
60	0x3f9d7e52522377d4	0.028802191031779348
61	0xbfaee9ad46db6d55	-0.06037656297641073
62	0xbfbb8f81d29997d6	-0.10765849486924081
63	0xbfdc5d3c8041b6fe	-0.44319069409435474
64	0xbfba860fbb958066	-0.10360811547934787
65	0xbfa6e1bc875bb778	-0.0446909823639165
66	0x3f93715c6f39e4f9	0.01898712567205949
67	0x3fb90ba4abf30a41	0.09783391187651437
68	0x3fab7fb37ed1d7f4	0.053708657484932504
69	0x3fad4a139d5c856d	0.05720578475871716
70	0x3fb07003e987cd1d	0.06420921756198479
71	0xbfd909db1f1d60fc	-0.39122655905295267
72	0xbfc23f62e0cb5183	-0.14255939461021336
73	0xbfbd39cc0f59db8a	-0.11416316389828132
74	0xbfc1ae94aee8a6d8	-0.13814028301685854
75	0x3fc275486cb5881f	0.14420419033109597
76	0x3fb11dd1cb8c6ee8	0.0668612596459145
77	0xbfc4748f31a81e5e	-0.15980710911411483
78	0xbfd9580705a94004	-0.3959977679523947
79	0xbfba947cbb7ea802	-0.10382823541172573
80	0xbfb9748aec978d5d	-0.09943455005809683
81	0x3fa2dbb30dc4f475	0.036832423621015055
82	0xbfc1d52732b0efba	-0.13931741690782734
83	0xbfb22d54cd8ce661	-0.07100420015640331
84	0xbfd3bcad40d3f2c7	-0.30839091616489295
85	0x3fb3922f86bb94d5	0.07644936599133996
86	0x3fb1cd16eae1bd96	0.06953566774767803
87	0x3fb7d7050b73803a	0.0931246903378459
88	0xbfd9f918c97edb60	-0.40582866360948877
89	0xbfdbadef4f655c9a	-0.4324911380148905
90	0x3fa0e2828162bc55	0.0329781325284492
91	0x3f9a43ede4251a41	0.02564975457178265
92	0xbf71fa3a330c1b51	-0.004389026013774736
93	0xbfaf26c07f21b285	-0.060842528838155586
94	0x3fbc902cc7ec5eaf	0.11157493477764534
95	0xbfab53b596b76d86	-0.053373026512157515
96	0x3fa1c5d36223b1b6	0.03471241543761343
97	0x3fa388a1e3a5c0a6	0.038151797331808
98	0xbf9709bf3b57c76b	-0.022498119351389272
99	0xbfdc0c49cc4fc5e7	-0.4382500167112923
100	0x3fb7827265e82f3c	0.09183421123469498
101	0xbfe06faa2a5c8043	-0.5136309459085243
102	0xbfc4a53f97f04142	-0.16129298132774222
103	0xbfc6d519fc55f375	-0.17837834187585214
104	0xbfd7a7e6dd12fc0d	-0.3696229132582978
105	0xbfdafd27021aca9d	-0.42170119481594687
106	0xbfb042092a1d476e	-0.06350762632544413
107	0xbfdab6be5856f123	-0.4174037802402088
108	0xbfc0051f88c9c2aa	-0.1251563470755362
109	0x3f95cd74e601da25	0.021291567362334746
110	0xbfacc486cf5d9ef4	-0.05618687897987043
111	0xbfdc0921dfa04ab3	-0.43805739248743264
112	0xbf74bbb139150fa7	-0.005061809804207152
113	0x3fb431d71f46cb03	0.07888550294482503
114	0xbfd30740a6d8c379	-0.29731766027094114
115	0x3fb06ac00754d13d	0.0641288774393773
116	0x3fbb88fbb0cd298a	0.1075589472431259
117	0x3f92257726bcc661	0.017721044291823754
118	0x3f74a2dcd348c71c	0.005038130377714525
119	0xbfc43bddc74bb7d4	-0.15807697516669228
120	0xbfd56c1a19e9066b	-0.3347230198888613
121	0x3f972d02299825bc	0.022632631100383924
122	0xbfdaad67ae6665e2	-0.4168338015675471
123	0xbfc608318534f07a	-0.17212504390943534
124	0x3fb89d95273696ae	0.09615452010492717
125	0x3fb17b9e70d09a00	0.06829252485531612
126	0x3fb2ff577b3297b9	0.07420870549921589
127	0x3f938ad4f238201f	0.019084288867844742
128	0x3fb04f3cf471cfa9	0.06370907752881173
129	0x3f97efbcc5491608	0.023375463048315864
130	0xbfb8555ce98ebbdd	-0.09505253507698748
131	0xbfa2219250d74714	-0.03541238056972254
132	0xbfa1f0fc3f0ff435	-0.03504169721416198
133	0xbfdcf1356376e76f	-0.45222220147444764
134	0xbfd460e89443598e	-0.31841482619110983
135	0x3fa4f49e5bc01ef2	0.040928791713723
136	0xbfb6bd2c0a1145fd	-0.08882403608119911
137	0x3fb1ad4612d25932	0.06905019721520914
138	0xbfdbb54f982eef0a	-0.43294134008077434
139	0xbfa252249dff1f22	-0.03578295162838986
140	0xbfcab863a7ae3285	-0.20875211417696363
141	0xbfdcee70643dfcfe	-0.4520531634261288
142	0xbfa207e42d80a182	-0.03521645598840718
143	0x3fb5b12cede7e875	0.08473473366021429
144	0xbfab89579cb7b787	-0.05378221309716396
145	0x3fa9acb436ca1c59	0.050145751655741484
146	0xbfd730f84b94015b	-0.3623638856952504
147	0xbfd08f6593a6bdb0	-0.25875224513125783
148	0xbfbd8e74c4f73332	-0.11545495804530218
149	0x3fc06ade2ad014a9	0.12826134767980094
150	0xbfc216b7c69b5c67	-0.1413182945022726
151	0xbfdb283b70e432aa	-0.4243305780844745
152	0x3f81309c5f2dc6c4	0.008393499045016191
153	0xbfcd41a87639b871	-0.22856622479179436
154	0xbfaa4c856c7fbf4d	-0.05136506032420005
155	0xbfdb155712e59904	-0.4231774982967098
156	0x3f8eeef9b225ce91	0.015104246853957977
157	0x3fa000f1e367a4b5	0.031257208833105045
158	0x3fb86517b8658c02	0.09529255153533714
159	0xbfbe91ce8385201a	-0.11941233359277739
160	0x3f4754017c7bf1e5	0.0007119185692939205
161	0x3fb2c988f17ffcf2	0.07338767906184154
162	0xbfce3e70d7e6cba2	-0.23628054182117092
163	0xbfd705c75a422188	-0.35972770513810604
164	0x3fb1ee4ea75dc33a	0.07004252992716156
165	0xbf92c7007d6b729f	-0.018337257056247776
166	0xbfb9fc4fff7164b2	-0.10150623308563203
167	0xbfba474fe4eaf59e	-0.10265063608945588
168	0xbf9a934fc62e3c2b	-0.02595257422541068
169	0xbfad617cb9b012ba	-0.05738439337441066
170	0x3f582dd94c480b9d	0.0014757749605684774
171	0xbf9a2887c1ccebe7	-0.02554523582805848
172	0x3fa1a5cdcaecf21e	0.0344681081973912
173	0x3fa2b201e50fc3f1	0.03651433869516286
174	0xbfc206bcb3c8672f	-0.14083060053308702
175	0xbfbadaf9003d3ddd	-0.10490375762787303
176	0x3fb2e274bc8389cf	0.07376794435871335
177	0x3fa12f5c88ddfcc8	0.03356446429006038
178	0xbfc694046c1da567	-0.17639212874500318
179	0x3fb64c63fb2f0fc6	0.08710312731187661
180	0xbfdc915ad4fb207e	-0.4463717536823494
181	0xbfd6e12465dc02f5	-0.35749158808907505
182	0xbfacc26d5d73d0e3	-0.05617086187149469
183	0xbfa6d35aa3ea8c98	-0.044581253537466725
184	0x3f7670cf5f3084dc	0.005478677793719213
185	0x3fa024fa19690a4b	0.031532111741871725
186	0xbfc549e5e5e165c3	-0.1663176891768626
187	0xbfb6c48b5da2259d	-0.08893652950259541
188	0x3fb363f5adcc823c	0.07574401372085843
189	0xbfd6a407261e7b67	-0.35376147005620456
190	0xbfc3e5cb4d4c300c	-0.15545026087090752
191	0xbfb27d606757080e	-0.07222559473942189
192	0xbf99163f4d4b0d9e	-0.024498929112053973
193	0xbfaf979de01bc6ce	-0.061703618628497034
194	0x3fb4f1a196edd43b	0.08181199965277212
195	0x3f83db68697b1b9c	0.009695831030865958
196	0xbfc0a2ea18679a5f	-0.12997175399432856
197	0x3f9c952b5c6e92fb	0.027912786022755914
198	0xbf99d490ab44e216	-0.025224934056696645
199	0xbfa4fa971d06a287	-0.040974352162554566

en2.weight f8 [100, 200]
0	0x3fa9ae5d39d2d3bf	0.05015841799596598
1	0xbfb69eec2e226f98	-0.08836246610957088
2	0xbfcaf82fea69dfe0	-0.21069907136893473
3	0xbfc69771dd44fef4	-0.17649672798324156
4	0xbfce75261eb55460	-0.23795010089330315
5	0xbf963cb8fa14e2c1	-0.021716013206261268
6	0x3fa7bee34a044d66	0.0463782337048098
7	0x3fa296e04fb9a6ca	0.036307344181137305
8	0x3fac34173e41a87b	0.05508492121664773
9	0xbfb300d02f1ccae1	-0.07423115873534016
10	0x3fb4f11b1ca02ec1	0.08180398415441471
11	0x3fc68bc1216a8d6a	0.17613996631289847
12	0x3fb48502049f565e	0.08015453923084112
13	0x3fc6e285d0bbdda6	0.17878792469103394
14	0x3faee9a95d5c7b9e	0.060376446386946045
15	0xbfbaf4b5b3185aad	-0.10529647467078958
16	0xbfb50dc057f50dbe	-0.0822410788287504
17	0xbf7531a5156df6a0	-0.005174298151244067
18	0xbf9b834d97131410	-0.026868069024903518
19	0xbfd0b0aee9d194f1	-0.2607838900933777
20	0xbfdea9ca11b281a2	-0.4791131184411147
21	0xbfa098c6a7fcd055	-0.03241558838490791
22	0xbfd016034e847d5c	-0.2513435618183928
23	0x3fa366f8d7b5dc9a	0.03789498933013498
24	0x3fbf9825c3a5f853	0.12341533686228105
25	0xbfbae82a6c9b2d04	-0.10510506774442169
26	0xbfa2c63e4063d1e3	-0.036668725357148955
27	0x3f9b757a8e20d51f	0.02681533329469687
28	0x3f91fb6f0d99132c	0.017560706334069184
29	0x3fa9a7b1da460977	0.05010753430817066
30	0xbfbb5acf9b45c301	-0.1068544153292912
31	0x3f9744a130410988	0.022722738809770188
32	0xbfb8ecb9b18e9184	-0.0973621424187226
33	0xbfa8d0c3615b6c8b	-0.04846773684922664
34	0xbfac371728e02fc6	-0.05510780691119481
35	0x3fabf73e5e129514	0.05462069414469731
36	0x3f78a8ac29115042	0.006020233632700269
37	0x3f79057cf4dc050a	0.006108749495753027
38	0xbf7c4edfa698664c	-0.0069111572606970866
39	0xbfc531788926792a	-0.16557223030844997
40	0xbfb17c14b1c1577b	-0.0682995733235127
41	0x3fc00871c1b59e83	0.12525770147771106
42	0x3fa9a99f5782c968	0.05012224143264882
43	0xbfbe2aad4ab62e79	-0.11783869813933191
44	0xbfd78848ddced9d8	-0.3676931539625037
45	0x3f8999c2c1d004e7	0.012500306644144433
46	0xbfd003f97982b3df	-0.2502425848604712
47	0x3f8276e2d7926b65	0.009015819743856299
48	0x3fa787a25574f215	0.04595668118642863
49	0x3fc64c1d9743fdf9	0.17419786344542823
50	0xbfccb060e8ef7b3c	-0.22413264631082963
51	0xbfa9d8d90f75ba87	-0.050482543122474736
52	0xbfb0bc15307e760b	-0.06536991533217688
53	0xbfb59995a8cbaccb	-0.08437476511942348
54	0x3fa8d1801a61e01f	0.048473361225603855
55	0xbfad2d7354cc24cb	-0.056987384892701685
56	0x3fb3551bcb3ab6c1	0.07551740371374206
57	0xbfc89b019a69a050	-0.19223041572263577
58	0xbf8353a93996e1d9	-0.009436914510715976
59	0xbfab0d26566e34a7	-0.0528346996789904
60	0xbf9d8eaf5b672399	-0.028864612535275922
61	0x3f8827f4299780ae	0.011794955748826243
62	0xbfa3a244de6bb14d	-0.038347389365159225
63	0x3fb263f11a09f24a	0.07183749089922134
64	0xbfbcb050fcbebc85	-0.11206537409337798
65	0x3fabb0a9e33b1be5	0.05408221148314122
66	0xbfc9271dad34eb8d	-0.19650622327193581
67	0xbfc1e9ac8e5a6031	-0.13994366598922306
68	0xbfcd5447980f9904	-0.22913451123094586
69	0xbfc51555c4439795	-0.16471359332279847
70	0xbfca8637ada9a4b0	-0.20722099284765738
71	0x3fb6cd295f0aa9a1	0.08906801767685703
72	0xbfb4d9523d9992f1	-0.08144105914977808
73	0xbfcce6d71df0cbd0	-0.22579468690818638
74	0xbfa049061c851907	-0.03180712793487044
75	0xbfd1184c4a898c88	-0.2671080329802824
76	0xbfdc4e900da9f438	-0.44229508718837307
77	0xbfaf2c7118dbc73a	-0.0608859389157161
78	0x3fbe1ce7626c8092	0.1176285376827784
79	0xbfb2957403d3f41f	-0.07259297460036905
80	0x3fc0c7b3ca683eac	0.13109443076290483
81	0xbfc387007aaaf291	-0.1525574301685038
82	0xbfbffcbbfa8b87d3	-0.12495016924688622
83	0xbf9d9028b499cd7b	-0.028870235465047394
84	0x3fc540c323e8ec12	0.16603888753329038
85	0xbfc65363d828ac0b	-0.1744198613608606
86	0xbfbf4c6fcf559263	-0.12226008235809042
87	0xbfb46788d351ddac	-0.07970481070684937
88	0x3fc0b045a4b07e41	0.13037939588046935
89	0x3fb213e8af117e63	0.07061628603104846
90	0x3facc05d3cac0daf	0.05615512242914222
91	0xbfc0ba5b6b72c33a	-0.13068716761110882
92	0xbfa65b510cc07e56	-0.043665440374976924
93	0xbfc0b5b0873ba7eb	-0.13054472544837323
94	0xbfce8d7aa60b1173	-0.23869259936885676
95	0xbf8ae0a3927c4f5c	-0.013123777301678956
96	0xbfc8580ddd3a5fd0	-0.19018719961309083
97	0xbf91ced8fa4dfd93	-0.01739062335718484
98	0xbfd058072725a556	-0.2553727991385889
99	0x3fc1a0a248e26c7c	0.13771465834438235
100	0xbfae0b3b06da3ca2	-0.05867943247459918
101	0x3fb0899bfee797c9	0.0645997521711187
102	0x3f767906df487eee	0.005486513943224953
103	0xbfd0037f7fd021f3	-0.2502135036634449
104	0x3fac179dc707e095	0.05486767820906483
105	0x3fb1ee3d8fe658c7	0.07004151118448752
106	0xbfc42d656f454ecc	-0.15763538296834267
107	0x3fc54858e20160cf	0.16627036128443826
108	0xbfb0104583a142a3	-0.06274828399296921
109	0xbfc8c26fe3c3737b	-0.19343374844802583
110	0x3fa1443237074bef	0.0337234203504052
111	0x3fc052dc0f96477a	0.12752867470822676
112	0xbfa959d37c9b7a82	-0.04951344390950842
113	0xbfafa726e1af2b6b	-0.061822142648074806
114	0x3fc5247cecd98e20	0.16517602505619866
115	0xbfc2a67c7a137f6d	-0.14570575676679756
116	0xbfd7921e0575b5ff	-0.36829329045471576
117	0xbfc75ade2a0a400a	-0.18246056606994926
118	0xbfa6e1f2037c283a	-0.044692576337255166
119	0xbfa44222c44e31a6	-0.039567076170985246
120	0x3fb7c4bf2f616e85	0.09284586817505598
121	0xbfb19bd6b25d883c	-0.06878415922759101
122	0x3fb2a01c3d21ff65	0.07275558941364364
123	0xbfc13f5cad9d6b8c	-0.13474615552226188
124	0xbfcddcf7018d6be1	-0.23330581260492436
125	0xbfca0789fbfa6616	-0.2033550720559993
126	0xbfad2cdf6693d019	-0.0569829762188478
127	0xbfa97d427c6e3306	-0.04978378075529659
128	0xbfa3fea24ae24f69	-0.039052077904812084
129	0xbfbb6090bd69ca3e	-0.10694222092005476
130	0xbfc249c968799cb9	-0.1428767929203099
131	0xbf92fd484ebadce2	-0.01854432087449432
132	0xbfb319425476e892	-0.07460417329903837
133	0x3f9939a755dcd469	0.024633993735922042
134	0x3fc1b59fa715dd63	0.13835521372287038
135	0xbfd5bddab4a64670	-0.33971278802446303
136	0xbfd0ceab292239e8	-0.2626140500732661
137	0xbfc13444b8732a35	-0.13440760618535
138	0x3fc77e8bc58766d8	0.18354937691656548
139	0xbfb99208c26038ce	-0.09988455529694137
140	0xbf9c544d9346cbd9	-0.02766534053234779
141	0x3fc757bbe32701bd	0.18236492721008615
142	0x3f6683da96284687	0.0027484196919054823
143	0xbfc4e6f818f54cc3	-0.16329861849462732
144	0xbf8b86257b687993	-0.013439457729927528
145	0x3fa57ca73eccd126	0.04196665422060368
146	0x3fb03e7437630aa7	0.06345297195643217
147	0x3fc60efbaa954be5	0.17233224705941477
148	0x3fb1af0402fa7d43	0.06907677719799658
149	0xbfc7578e80ee2c22	-0.18235951705386905
150	0xbfb6c6c8cd0dce26	-0.08897070890616784
151	0x3fb0814e88a22474	0.06447306476379017
152	0xbfcd1a660b92ce28	-0.22736812176809562
153	0xbfad3a01a825eca3	-0.05708317926015496
154	0xbfc8f700350cbe04	-0.19503786650010124
155	0x3fc470a14d9aea72	0.159687197583327
156	0xbfcc9a5ad574c610	-0.22346053526557386
157	0xbfc7d15790f13ffc	-0.18607611253037237
158	0xbfe0ccf240b258f3	-0.5250178588492233
159	0x3fa1011c58fc43dd	0.03321159921882331
160	0xbfbf36ab603904ef	-0.12192793940723211
161	0xbfa40e8cbbbaf9a2	-0.0391735057032634
162	0xbf9719ef1513cb1b	-0.022559867536027328
163	0x3facbe412054b9a7	0.05613902587571156
164	0xbfb7794e3ac76bd2	-0.09169472632440481
165	0xbfacec31489cb1ed	-0.056489505876331815
166	0xbfc670893589ef53	-0.17530932535361873
167	0xbfc4bd99bc847536	-0.16203614907218772
168	0xbfb1238fb7747bc2	-0.06694887379533923
169	0xbfb8784245617e2e	-0.09558500474803885
170	0xbfd008c68046eba6	-0.25053560759595894
171	0xbfa003ed2ce95986	-0.03127995656238895
172	0xbfce84d00b1e31ce	-0.2384281210219243
173	0xbfc14a82f6e4b9fa	-0.1350864129576193
174	0xbfbd1b83d1745596	-0.11370109428056305
175	0xbfb8b7b5ae4cd2e4	-0.09655318742154467
176	0xbfc79509ded2b7b8	-0.18423579578432991
177	0xbfcd16a645bd53bb	-0.2272537079358282
178	0xbfb741e14bbea709	-0.09084899996983266
179	0xbfab89852af69255	-0.053783570761230116
180	0x3fc0413790e15982	0.12699026655418427
181	0x3fba873647baaceb	0.10362567187501141
182	0xbf8a55d31365b76d	-0.01285900977083162
183	0xbfa8091f55156926	-0.0469445983278141
184	0xbfc27217912fe712	-0.14410681332793068
185	0x3fa0ff52482bbdf5	0.03319794779769928
186	0xbfb9206d61475a4f	-0.09815105080574792
187	0xbfc37b123cb8fd30	-0.1521933361527572
188	0xbfcfee71a93086fc	-0.2494642330284974
189	0x3fb5d6b586e4ef0d	0.08530745070759967
190	0xbfb51fc01ead2d18	-0.08251572369515647
191	0xbf8f6f74aecf5974	-0.01534930380323083
192	0x3f8f466a7a27d55b	0.015271026471036
193	0x3f9e9556cde651cf	0.02986655837737989
194	0xbfd52a1f97f66a91	-0.3306960090646181
195	0xbfc058304ef88806	-0.12769130569455472
196	0xbfb492f0df46e472	-0.08036714030358086
197	0x3f94cdbaef5f3327	0.02031604848871207
198	0xbfb0c8d7b7507129	-0.0655646154922961
199	0xbfc39358f03e8cfc	-0.15293418627434352
200	0xbfce69861e98e164	-0.2375953339958513
201	0x3fb52d9d6ce0a34e	0.08272727878705874
202	0xbfb3b18e52e7e6b6	-0.07692803882664631
203	0xbfaf8ad9c5497019	-0.06160622151648471
204	0xbfb342c6a7359052	-0.07523767072922397
205	0xbfb222f855fee967	-0.07084610080247487
206	0xbfc37a567646531f	-0.15217095160610314
207	0xbf80e031e6a3b793	-0.008240117884692732
208	0xbfc17229cba128f5	-0.13629648630951122
209	0x3fb48f90faf07759	0.0803156483311488
210	0xbfc542dba077e156	-0.16610284171452844
211	0xbfccf3dbb01b4a2e	-0.22619196032481298
212	0xbfce40e3eb089a2b	-0.2363552949547779
213	0xbfbdae84b331213c	-0.11594418883135388
214	0xbfa2fb7dff7e54b0	-0.03707498306099788
215	0xbfa364a8e7082ce4	-0.037877348138943195
216	0x3f91ca1d631e1a94	0.01737256925073412
217	0x3f7f461e6a82398a	0.007635229885762826
218	0x3fa42ca389109242	0.03940306709435905
219	0x3f94b1ca4e34fb61	0.020209466002821034
220	0x3fad4ec44ed22ed3	0.05724156820460071
221	0xbfb1c15b0b4bb35a	-0.06935662294172343
222	0xbf952384aff06fbc	-0.020643304098584045
223	0xbfad7e706ff114e9	-0.0576052796027769
224	0xbfc5b1a9bdd39937	-0.1694843460929378
225	0xbfa05048aa5fd403	-0.03186251716389423
226	0x3f84d3c40542e5dd	0.010169536028444998
227	0x3f9e108e877d1988	0.029360034007618135
228	0xbf9e83984e023be1	-0.02979886985900382
229	0xbfb23ff1bbf1ba18	-0.0712882121895081
230	0x3f8aa808913fe16f	0.013015810902275075
231	0x3fc5a9c1de60d89c	0.16924308164897617
232	0x3fa15e436374733e	0.03392229641960974
233	0x3fa41f00511bb8b9	0.03929902067271613
234	0xbf88565d3bc1c61d	-0.011883476625572926
235	0xbfcc337789b90f4c	-0.22032064652204963
236	0x3fa2560b97ace19c	0.03581272341256467
237	0x3fa53562924e891c	0.04142292057010108
238	0xbfb494c5cdc2fbda	-0.08039509080388943
239	0xbf9b7422ff76e5a7	-0.02681021389228069
240	0x3fa6ce11e0640618	0.04454093803543574
241	0xbfc3a598aa3caa31	-0.1534910994754042
242	0xbfcee6b4cbcfa6fe	-0.24141559554782782
243	0x3fa644109d9fae25	0.0434880440151029
244	0xbf9e55a6b557caac	-0.029623608415884448
245	0xbfc9f1e19ea7c52f	-0.20269413229792962
246	0x3fa26552a0cb2cb2	0.03592928135693664
247	0xbfb67a952f93da6e	-0.08780796443520852
248	0xbf933458963f6383	-0.01875437180555962
249	0xbfc5c1f416dc9b66	-0.16998149029060555
250	0x3f93c9dbb8973272	0.019324715749279915
251	0xbf74d4fe9d30de89	-0.005085939966242522
252	0x3f901754df022e54	0.015714002715453937
253	0x3fac247e9f9b9cdf	0.05496593187654652
254	0xbfb2ba258abc5b81	-0.0731528724394206
255	0xbfc379adea79101f	-0.15215085934517078

en2.bias f8 [100]
0	0xbfca0a6ce453c887	-0.20344315670769594
1	0xbfae19a7f2915a38	-0.058789490089726504
2	0xbf979c6f19f53755	-0.023057685813277235
3	0x3f7789f698b7fce3	0.00574680640011069
4	0xbfc1e0364bd1547d	-0.1396549101070014
5	0xbfd4f7a34f5a48a4	-0.3276146197250773
6	0x3f7a813177286e02	0.0064708645100171065
7	0xbf87f0abfc27bcd4	-0.011689513809839992
8	0xbfcc1629d5d13236	-0.21942637386600133
9	0xbfc38fa1a4c317e7	-0.15282078309081656
10	0xbf9c37ec395adc0e	-0.027557078362146874
11	0xbf825882fbb3c081	-0.008957885080661978
12	0xbfbd1dbb360feab2	-0.11373491353871648
13	0x3f5d47aecfcea314	0.0017871100564922958
14	0xbf91d407c432d327	-0.01741039404869862
15	0xbfb6a30dfb627d0c	-0.08842551600763587
16	0xbfb9954784db4012	-0.09993407243314348
17	0xbfa60f2c7745e7db	-0.04308451610536653
18	0xbfb539dae99e3e75	-0.08291404918258556
19	0x3f42ea37b9590c0e	0.000577237328521442
20	0xbfd045f40c434bea	-0.25426961133524506
21	0xbfa5eef078c4fdd5	-0.04283858751523054
22	0xbf9274f4ac3be7c9	-0.01802427579148239
23	0xbfa2f3abae4817e2	-0.03701530935727228
24	0xbfb645794b14a79a	-0.08699758608841393
25	0xbf98b503c013b41f	-0.02412801608891268
26	0x3f84fea4d8c656db	0.010251319756928215
27	0xbf91a3dcc1fcbcc7	-0.017226647701303912
28	0xbfb723f25a1c3961	-0.09039225292165078
29	0xbf997322b1b09496	-0.024853269667933185
30	0xbfa3946614227ec3	-0.038241567571501565
31	0x3f941ae65b8f55b1	0.019633864725468523
32	0x3f9376a3d406dfb2	0.019007263008205384
33	0x3f7fe4174b998467	0.007785883900937574
34	0xbf668ae00cf4f837	-0.002751767729619405
35	0xbfa231242198df85	-0.035531167126861475
36	0xbf70d45efa4a85ec	-0.004108782774581137
37	0xbf988d1118e4120f	-0.02397562708303452
38	0xbfa07f49c79bbc89	-0.03222113191247284
39	0x3f9155d7198d6656	0.016929017004576906
40	0xbf91656a76237510	-0.01698843332348071
41	0xbfb4864d33b80862	-0.08017427933376234
42	0xbfbdd2ff0e5167fe	-0.11650079822121026
43	0xbfce9826bf624b4a	-0.23901829094810473
44	0xbfab5045ff000051	-0.05334681260865238
45	0xbf794c8f45119549	-0.006176528594641192
46	0x3f9611cf8c426f74	0.021552317558060932
47	0xbf836ed151154952	-0.009488711630784383
48	0xbf7feba889bd6ac3	-0.007793100692505109
49	0x3f927dcd797294f9	0.018058023965427748
50	0xbfbe6b1e2f692fba	-0.11882198960773752
51	0xbf8d6e08a5eb4cf4	-0.014370029033136757
52	0xbfd046fc9de77efc	-0.25433268947925547
53	0xbfd3304d2bf0c071	-0.2998230866533112
54	0xbfa95c04d0f643ed	-0.04953017283254
55	0xbf934e86ba098f3a	-0.01885424147111723
56	0xbf8542dc0915b08c	-0.010381430651897249
57	0xbf8bf627a6a9149b	-0.013653096936773237
58	0xbfd2e025702df874	-0.2949308009627949
59	0xbfca69f91f232a0e	-0.2063590433156865
60	0xbfd0f0da91ee58fe	-0.26470054865912107
61	0xbfcdbca1530da038	-0.2323190360577898
62	0xbf8f24f391835124	-0.015207198026850728
63	0xbfa1d030348877e3	-0.034791475689629946
64	0xbfa0990f3f4b2f70	-0.03241775176647266
65	0x3f9576fbb8a0e1b5	0.02096169771559327
66	0xbf8a52efb748cd41	-0.012853501110930867
67	0xbfc5b2818dbb2a6e	-0.16951007290329606
68	0xbf8117c48f3b875d	-0.008346114750967077
69	0xbfbc5c62bf33278a	-0.11078469436611563
70	0xbf8eb05f57f65763	-0.014984841224570727
71	0xbf875bd37734fd6b	-0.011405613017471969
72	0xbf811a35ed886baa	-0.008350774108341803
73	0xbf989e0f50308675	-0.02404045035303289
74	0xbfca518f18a9c515	-0.20561398224121122
75	0xbfa660625d1c6ea5	-0.043704103342148394
76	0xbfb22095354c2293	-0.07080967475134008
77	0xbfb0f53fea60698e	-0.06624221298299046
78	0xbfd1917bb513f84f	-0.2745045917835158
79	0xbfcf5666accf0361	-0.2448242515365804
80	0xbfa1bb859aade62b	-0.03463380349326103
81	0xbfbd8e7112336721	-0.11545473760943682
82	0xbf980950a5da3bf1	-0.023473034022170883
83	0xbfaf8181fcef0384	-0.061534940839471225
84	0xbf91bc1e80b75b3c	-0.017319180113044327
85	0xbfa5646a23e7a96a	-0.04178172767918194
86	0xbf7dbb9dbb9cd134	-0.007259002822867001
87	0xbfada8d4b608c754	-0.05792870256517682
88	0xbfa78458e37d0f59	-0.045931604165643854
89	0xbfbadd134861a38b	-0.10493584172367158
90	0x3f68c4f0e9d02b6f	0.0030235963190582897
91	0xbf9e602b96d86c1a	-0.0296637354677892
92	0xbfac61b7afcf873e	-0.05543302556158246
93	0xbfb2dfd3bcc14d78	-0.07372783048895382
94	0xbf9b29f881313e30	-0.0265272930958515
95	0xbfa3185f112690bb	-0.037295313685974794
96	0xbfd0465012d0944f	-0.25429155194644165
97	0xbfb060009069f478	-0.06396487737397816
98	0xbfa0c5af23561124	-0.03275821024274908
99	0xbfac3502247c4053	-0.055091921762255545

en3.weight f8 [50, 100]
0	0xbfa9c12684555850	-0.05030174603841486
1	0x3f8bb41d7d9df5b1	0.01352713622668031
2	0xbfc2f59985e455db	-0.1481201080102171
3	0x3fb746d5d176ddad	0.09092460979342461
4	0xbfa2c4c3b6c84077	-0.036657444059643156
5	0xbfbe83e49dceb509	-0.11920002796860642
6	0xbfa143b4c3e81917	-0.033719681658157245
7	0xbfad6dff0fb56827	-0.05747983042483922
8	0xbfc23ae4dc810496	-0.142422301929433
9	0xbf92e556c168e7d7	-0.01845298343162213
10	0xbfb0f67fcf7d47a6	-0.0662612802091461
11	0xbfc0d98c30d86473	-0.13163902649901935
12	0xbfb091dd86c984ac	-0.06472572842314389
13	0x3fbe4f4a2d614296	0.11839736564548739
14	0xbfc9431b15f74388	-0.19736040661385013
15	0x3f5451e7517d3ca5	0.0012402304618779694
16	0xbf9e35631f9fc913	-0.02950053101080481
17	0x3fb3fec17963d76a	0.07810601438162981
18	0x3f7e876ab0f755e6	0.007453362238682959
19	0xbfcd8ad797ef46ab	-0.2307996265285984
20	0xbfc83903334d8122	-0.18923988347069903
21	0x3fb9b2f0af257cd4	0.10038666034732852
22	0x3fb6f80ee93b9e21	0.0897225684562888
23	0xbfc2f73dcf7f7136	-0.14817021018724014
24	0xbfb0c906bd67155d	-0.06556741832817665
25	0xbf95a4b661c695a6	-0.02113614055419579
26	0x3fb02ebdb0b1d876	0.06321321071468042
27	0x3fa6302e452cc514	0.043336339897346005
28	0x3fa73829b52a2637	0.04535036407930842
29	0xbfb60d3eabe75700	-0.086139599770231
30	0x3f1599f84447fa72	8.240297126602974e-05
31	0x3f9bb559160be44b	0.027058975191696793
32	0xbf9e2582bad6ff9f	-0.02943996682529326
33	0xbfa71b032ebcf8f4	-0.04512796350035045
34	0x3fa0a2f12aa73bee	0.032493149239250715
35	0x3faed6479846f1a9	0.06022857412196753
36	0x3f8a8b352cd8355c	0.012960830145881168
37	0x3f3b4c34defe1887	0.00041652956769445314
38	0x3fac5036ce286b7b	0.05529948488784605
39	0xbfabaa079929be3a	-0.054031598517096005
40	0xbfac0fd274146305	-0.05480821291911834
41	0xbfac7b24c24f1f66	-0.05562701103150296
42	0xbfc4ec8e91b99cca	-0.16346914401512996
43	0xbfcc23ce5ebab027	-0.21984271645976713
44	0xbfd0bf9b805f0679	-0.26169478927850026
45	0x3fb9eb278f636512	0.10124442339601483
46	0xbfaaa98062b2cce2	-0.05207444386305739
47	0xbf7c7376820495fa	-0.006946051522651592
48	0x3fbe6c703f11e264	0.1188421396235611
49	0xbfb1f8f80024e53b	-0.0702052116729605
50	0xbfc2b3fc181bfcd5	-0.14611769845212189
51	0xbfd2593378208f7b	-0.28669440013094744
52	0xbfcaed0b400f3635	-0.21035900714780245
53	0xbfd116a5d285288e	-0.2670073085652199
54	0x3fb3c8c06d2ebdf9	0.07728197732534871
55	0xbf031d2d002dd553	-3.645700055347292e-05
56	0x3fb3475e2b82824b	0.07530773699046127
57	0xbf8a18721ca4d5a0	-0.012741939067022312
58	0xbfc656c753d77f39	-0.17452327340924415
59	0xbfcbea6a176385f1	-0.21809126035718365
60	0xbfd1780607c73278	-0.2729506565054076
61	0xbfbe34c71b331c53	-0.11799282468847254
62	0xbfbf21c99c3464a2	-0.12160930694189401
63	0x3fb260772cbcc522	0.07178444711896195
64	0x3fb6f53226be1ebe	0.08967889257302894
65	0xbfca5c43482e1e9c	-0.2059406378214036
66	0x3fb2acc797e78427	0.07294890841105027
67	0xbfc942fe5a24d997	-0.19735698129234144
68	0xbfa8e16316d8c119	-0.04859456685915315
69	0x3f912074df7bd1a0	0.016725374355660017
70	0x3fa8a5d47b8b8cd1	0.04814018257254705
71	0xbf9bebccf4807f73	-0.02726669542619171
72	0x3fb12046626372eb	0.0668987264829856
73	0x3fa1b3484d084b6c	0.0345709413560574
74	0xbfca020d9b1fffb6	-0.2031876571127193
75	0xbfbe3aa226dfe446	-0.11808217476927138
76	0xbf9042295c8cffdd	-0.01587738635430457
77	0xbf915982286db72b	-0.016943010060848678
78	0xbfce6da65c4eff9e	-0.2377212477422263
79	0xbfc45172ae445c7d	-0.15873559483654623
80	0xbfb52b3819635b2d	-0.08269072170092491
81	0xbfb629d80528d955	-0.08657598615613911
82	0x3f673a8b52f02e00	0.002835533253806366
83	0xbfc1ad9e647ee5b3	-0.13811092288032753
84	0x3f992d8f5bbd21dd	0.02458786008290469
85	0x3fb61970622b4102	0.08632566830351965
86	0xbfba83d86d91780e	-0.1035743014813024
87	0x3fb17e6f5e9f304a	0.06833549556830679
88	0xbf80f439a93eee05	-0.008278322675201908
89	0xbfc581376ee4df9b	-0.1680058757281103
90	0xbf869c6eed268a8e	-0.01104056035257386
91	0xbfa2c72a4077bdcd	-0.03667575871429172
92	0xbfb1958b77af68dd	-0.068688122482317
93	0xbf90e5cd1785f868	-0.016501621781110393
94	0x3fbe9750a957b215	0.11949638494815702
95	0x3fc21517a43362a1	0.14126868741620505
96	0xbfbd906c3d8195c3	-0.11548496724716188
97	0xbf90ee7b70870162	-0.01653473734200029
98	0x3fa59a5ce0fddaee	0.042193319763944234
99	0xbf62887103c132d8	-0.0022623259847363957
100	0x3fba83c983b74c94	0.10357341256831126
101	0xbfcdbe6150c29b7e	-0.2323724407517282
102	0x3fb55f0f983ca41c	0.08348176447601968
103	0xbfb4442b7add25ac	-0.07916518926244603
104	0xbfb39d8aed3d770b	-0.07662266056055615
105	0x3fc0784c70fea254	0.12867122189824676
106	0xbfb05721a3d3feee	-0.06382951974591908
107	0xbfbd5443c6a243d2	-0.11456702804049648
108	0x3fa597eea398d9ec	0.042174775572153184
109	0x3fbba3963a305950	0.10796488686205419
110	0xbfaa4ac73b2748f4	-0.05135176274383638
111	0x3fc24154efb2309c	0.14261876777562044
112	0x3f895c6a1e572c1a	0.012383297968787278
113	0x3fa26f5fa467144e	0.036005963152583406
114	0xbfca538c99aa0c8c	-0.20567471984040642
115	0x3faf5d8632684011	0.06126040807077982
116	0x3fb44d06481f0867	0.07930030117771168
117	0xbfc580d125a4b092	-0.1679936822705526
118	0xbf888bbe0cebdfc3	-0.011985287446336096
119	0xbfbfd67cb1988a39	-0.12436656318508534
120	0x3fbd0d90b09de2da	0.11348823844845005
121	0xbfc72b0c5a17d1a7	-0.1810012283236919
122	0xbf9a47c0b78f354c	-0.025664340213372314
123	0xbfbe06b606b39867	-0.11728990234004898
124	0xbf98fd7b58fcfbed	-0.02440445643082605
125	0xbfb6c00981774ca4	-0.08886775408545816
126	0xbfc19e84a3072596	-0.13765008888576052
127	0xbfc137ff2d5fd3d6	-0.13452138629477756
128	0x3fa99c4be3adbcb8	0.050020572226338655
129	0xbfc0c27a34aff189	-0.1309349782240015
130	0xbfc8abdba89f3a03	-0.1927446912145144
131	0xbfc4c820ffb6fce6	-0.1623574493987469
132	0xbfc023ba60c2d4e1	-0.12609033322011157
133	0x3fa9262a384940c9	0.049119300242297444
134	0xbf86a4ecd6687822	-0.011056757252898623
135	0x3fa9ffdabaa1361b	0.05078013923830956
136	0xbfc2c6a60a0e7d87	-0.14668727389378608
137	0x3fc1812b1999a5a1	0.1367544054985901
138	0x3fb4d00f1ed3826c	0.08129972937195767
139	0xbfa2e158ce9d15d2	-0.03687551042689176
140	0x3fba5a95f7c2b8f9	0.10294472979396464
141	0x3fb4c98b8c3b8d11	0.08120033429763775
142	0xbf7fe273bc286fb9	-0.007784320916950743
143	0x3fbe23311c2a1252	0.11772448480230338
144	0xbfc508870601fa08	-0.16432273667665265
145	0xbfa913761efbc02b	-0.0489766037770781
146	0x3fc703d684a3d6d5	0.17980462528765054
147	0xbfbb59255e3e5f9b	-0.10682900954122802
148	0xbf9904734258a89b	-0.024431038784464048
149	0xbfb82f603bf00075	-0.09447289908712427
150	0xbf9ff10f59bffdac	-0.031193008282569032
151	0x3fc7e8b6fd349cd6	0.18678939212370577
152	0x3fc6dfab134de294	0.17870081369962476
153	0x3faebf769f9c84d0	0.06005449961072318
154	0xbfb992d08cfcb078	-0.099896463795348
155	0xbfab537184ef7b05	-0.053370997884249184
156	0x3f86fdac2ba9e1e7	0.01122602947474234
157	0x3fb0be07757dd386	0.06539961451001206
158	0x3f923ba5e0a88ce9	0.017805663907108835
159	0x3fbc572658f4445a	0.11070480033619515
160	0x3fb3f620df151066	0.077974371398399
161	0x3fa889a50908fe3a	0.04792514548580269
162	0xbfa0b5f560a25370	-0.032638233228829416
163	0xbfc242387e03b959	-0.142645894556561
164	0xbfc70ecb1782b627	-0.1801389565275013
165	0x3f99d29323ac04e9	0.02521734147285751
166	0xbfc62178f8897f35	-0.17289650092697575
167	0x3fb622a0fe519444	0.08646589478446837
168	0x3f9d6d7a0036e674	0.028737932456101636
169	0xbfb15ae8557fe5e9	-0.06779338920014023
170	0xbfbacb3906a920c3	-0.10466343319524456
171	0x3f83a01d431ec549	0.009582737551542169
172	0xbf9afecb36d25553	-0.026362586232229045
173	0xbf789060489f21f6	-0.005997062786214693
174	0x3fb33e9976fdf64a	0.07517394213751874
175	0x3fa6d1385003a8c6	0.04456497170197475
176	0xbfbabea3d24c0501	-0.10447143444254793
177	0x3fa52b2f5c6ae407	0.04134510043281386
178	0x3fbd01463f3f06c8	0.11330069583984959
179	0x3fa1d1d940a3bc4d	0.034804143086028284
180	0xbfa2ba34a10069e4	-0.036576885846631574
181	0x3fa722e8c28f2d96	0.04518821120253873
182	0x3fa0b1fecc451316	0.03260799640205485
183	0xbfb3b01ad49233b8	-0.07690589608883058
184	0x3f8bacd9ec5447da	0.013513281368918873
185	0xbf87fe6f1b3bbdeb	-0.01171576310977592
186	0x3f879768997a0b5e	0.01151925772069767
187	0xbfc21689427040c2	-0.14131274932925036
188	0x3fb984be7082e66e	0.09968176123484238
189	0xbfaa13d2b99d76b1	-0.050932488592235876
190	0xbfa468262509fb04	-0.03985709383140626
191	0xbfbf5358a8de3b1b	-0.12236551401859368
192	0xbfc090cd550afeb3	-0.12941900875556697
193	0x3fb97829d963cad3	0.09948979909294602
194	0x3fa40038117745db	0.039064170963353205
195	0xbfc106ee4a080035	-0.13302401175315173
196	0xbf96a757f9183463	-0.022122740343594304
197	0xbfb5d932400d9c18	-0.08534540237234045
198	0xbfc1627794a2484e	-0.1358174777747671
199	0xbfb5688e7d3068ee	-0.08362665706991709
200	0xbfd2e80b5384bf62	-0.2954128566370767
201	0xbfc6c0a154a03c4e	-0.1777536071026326
202	0xbfd0d96ffe3a4c4d	-0.2632713301365513
203	0xbf5c9a4477640270	-0.0017457646004574133
204	0xbfbda1e64213b6b6	-0.11575163949211284
205	0xbfc9154c082d74a5	-0.1959624328546045
206	0x3fa3000f4b8f181f	0.03710983083105667
207	0xbfb8f620227f27f5	-0.09750557748989748
208	0xbfb5167403ed1d4c	-0.0823738584123152
209	0xbfd2d901373723b0	-0.2944949187481667
210	0xbfa7b7e896a4f9bc	-0.04632498587533315
211	0xbf92559cd90c330e	-0.017904711482560613
212	0xbfc24e7ba1fafab8	-0.14302010926436082
213	0x3faa1f6f8de4fccb	0.05102108580694561
214	0x3fbebfeb1e755c33	0.12011594289411746
215	0xbfa340c75842b8e1	-0.03760359718704521
216	0xbfc95d4cf93ecd7f	-0.19815981073552888
217	0x3fa9ab31eaffbb42	0.050134239136119266
218	0xbfd02c5a5d41adfd	-0.2527070913990597
219	0x3fb6913052315c6c	0.08815290457401809
220	0xbfb276ffc4b5f492	-0.07212828209408631
221	0xbfcea651669c77b2	-0.23945062170326775
222	0xbfb2a6e5e92e13a0	-0.07285916273947501
223	0x3fbae0b9216230c7	0.10499150338199846
224	0xbfc661e0e4d1f408	-0.1748620145116606
225	0x3f982face9674ba9	0.023619367357081398
226	0x3fc01ab7d2f748e5	0.12581537056991646
227	0xbfbfa32b5ff1e11d	-0.12358351795581198
228	0xbfd01b51d2e27fc4	-0.25166745752539676
229	0x3fa545a14c725c92	0.041546860296130764
230	0xbf9a13e6bc04ae82	-0.0254665424592262
231	0x3f88db50a805dd2a	0.012137060287143859
232	0xbfacd6d3646d0c2f	-0.05632649041083259
233	0x3face08ff63ebdc7	0.05640077477380206
234	0xbfb6714b0301a637	-0.0876662142124126
235	0x3fcd2e651ceec543	0.22797836220483178
236	0xbfba857906eee1cf	-0.10359913272157616
237	0x3fb456dc85e26bc3	0.07945040005362984
238	0x3f93ac9dd39b9372	0.019213167229185264
239	0x3fb20d2d0cb5de9e	0.07051354942620455
240	0x3fbd3257ad8c88dd	0.1140494154647373
241	0xbfca371fb20244da	-0.2048072451766874
242	0xbfa511d766288fa0	-0.041151744099152454
243	0xbfae4b12414d719e	-0.05916649863386002
244	0x3f8e5e3a7c4f5eca	0.014828164023057328
245	0xbfa2975fd0f84d36	-0.03631114412214702
246	0x3fd3d222179b2159	0.3097005110289693
247	0xbfc439f195953fb8	-0.15801830104692072
248	0x3fa91b1d50f8e9a3	0.049034992346111105
249	0xbfb0685412079a6c	-0.0640919250505278
250	0xbfcf160f090c17ee	-0.24286067907104275
251	0xbfa646c4709e11ea	-0.043508661982773436
252	0xbfa951a9da3193e6	-0.04945116795060027
253	0xbfc31c00cd4b6b71	-0.14929208778525152
254	0xbf98ed70f1f48c9a	-0.024343266265657172
255	0x3fa60b34c7de4a2b	0.043054246328342614

en3.bias f8 [50]
0	0xbf831ac010484bd0	-0.009328365799808142
1	0xbfc00bfa79ee600b	-0.12536555246038036
2	0xbf88775aa0654f2a	-0.01194639970768881
3	0xbf8c39bb61dab1dc	-0.013781989978576208
4	0xbf78eb19bcea6e21	-0.006083584345698807
5	0xbf8a2b93c8fc6d37	-0.012778429576022361
6	0xbf87a2c061edc4c0	-0.011540892590092944
7	0xbf9c19404241a27c	-0.027440074962586256
8	0xbf9274afa9c9f4f3	-0.018023247469035785
9	0xbf8551773d59d807	-0.010409289893896568
10	0xbf9b29918ef21fff	-0.02652575907680443
11	0xbf8146f08b8a2c32	-0.00843608785478098
12	0xbfab694aefee6f8e	-0.05353769472932789
13	0xbf8982d2f4535b4f	-0.012456558305002167
14	0xbf932e16ce3ac20a	-0.018730503403903177
15	0xbf98f76e423b5ab2	-0.02438137320754192
16	0xbf3a18c9cf6ac9f4	-0.0003982060147037774
17	0xbfa072d16e63c226	-0.032125992512991794
18	0xbf9ca243f400fb26	-0.027962743537723565
19	0xbf73626d7854307e	-0.004732539765665787
20	0xbf7eff02df7a6b16	-0.0075674164032999616
21	0xbf89457e142d6b3a	-0.01233957766605941
22	0xbf8af99c0e5734d8	-0.013171405017511281
23	0xbf8e85b572a08f60	-0.014903466759342343
24	0xbf6ed610ff5b34b4	-0.003764184187139275
25	0xbf9915332b4ff2ab	-0.024494933622906483
26	0xbf587ed0c1749d4c	-0.0014950789098494175
27	0xbf9d2852f66447bc	-0.02847413662772856
28	0xbf8df775fab5c5db	-0.014632150376857325
29	0xbf967ebe53dd7a31	-0.021967862957689547
30	0xbf9249c4c5fa7ba4	-0.017859530051847053
31	0xbf9f60405c74c90f	-0.030640607493475133
32	0xbf9168c0c5a58389	-0.017001163543116902
33	0xbfa4763da5ac0c9b	-0.03996460578312019
34	0xbf910f2042898e2c	-0.016659263669124666
35	0xbf965b8f64426803	-0.02183364915308773
36	0xbf61a4b5baf3361d	-0.0021537351054579227
37	0xbf9883947ed56662	-0.023939438096340367
38	0xbf9800c73cf117c9	-0.023440468878355412
39	0xbfa4437ae38fc6e4	-0.039577331808585275
40	0xbfa01ee9d8bc2d96	-0.031485851008336826
41	0xbf66db2c254e0e8b	-0.00279005644046199
42	0xbf86516fac7dbae1	-0.010897514773856755
43	0xbf983b6a6a758f2d	-0.023664152858500365
44	0xbf6e0812ba216806	-0.0036659589541558927
45	0xbf88849044c74bb7	-0.011971594904854983
46	0xbf96a4f2b7507379	-0.022113602102865813
47	0xbf973a0a60e6a5e4	-0.022682344593396922
48	0xbf953c98f4bf6d9b	-0.02073897355863395
49	0xbf898a8b2ab9ed03	-0.012471282235529296
