projects/my_data0/model/model.pt (torch, 438417 bytes, 16 tensors)

en1.weight f8 [200, 8]
000000 53 ed 92 d6 a1 4f c8 3f 5f d0 07 63 4c 9b d2 bf
       0.1899301812862669 -0.2907286612601236
000010 ff 27 40 bf 9f 80 cd 3f bf f5 98 8e 3a 1e a7 bf
       0.23048779333504396 -0.045152501971169816
000020 6d c3 bc e6 7e 7e ae 3f 8e 2c 26 eb 57 0b d2 bf
       0.05955883566492202 -0.2819423481348132
000030 71 c5 20 cc be d6 c0 3f a5 6f 2e 11 57 96 c5 3f
       0.13155350653827783 0.1686505159276496
000040 59 df ea fa 6a 1c db bf 05 31 3d 81 e1 aa c0 bf
       -0.4236094904294894 -0.13021487055301165
000050 b5 89 41 0e 8b ad d5 bf 73 2f ea c1 d4 0f e0 bf
       -0.3387172354906867 -0.5019325053594755
000060 74 5e 68 91 bb f8 e2 bf 7b ce ba c0 ec cf e2 bf
       -0.5928628768915147 -0.5878814472439012
000070 92 94 3a a2 42 7c dc bf f2 22 47 07 a9 0a da bf
       -0.4450842460885919 -0.4069006510804193
000080 4d 41 c5 76 f9 72 9b bf 62 58 54 e6 47 1c c3 bf
       -0.02680578029077312 -0.1493005633025773
000090 f5 7e e9 4f 6e 4b d7 bf d0 10 1e bc 7f 1a c0 bf
       -0.3639789371863878 -0.1258086842100341
0000a0 06 65 8c e4 b1 ad ca bf 2e 15 47 2a 2d 21 d2 bf
       -0.20842574748602533 -0.2832749283664552
0000b0 cd 23 b4 4b 6d e7 ab 3f db c1 32 d0 4a cd b7 bf
       0.054500022402926264 -0.09297626097646321
0000c0 89 f4 f7 bb 44 04 c6 3f 5e 35 a4 e0 a2 0c cb 3f
       0.1720052640738781 0.21132312744922904
0000d0 ad 59 58 c6 0d 75 8a 3f b8 38 36 2b c1 57 d3 3f
       0.012918574920189519 0.3022311136236442
0000e0 03 77 a9 8a 06 e9 d5 3f 70 b7 8a ae f8 3c c1 bf
       0.3423477510567496 -0.13467319986869652
0000f0 f5 3e e0 b8 c7 14 d2 bf 5c 71 9e 2f 0b be a2 bf
       -0.28251832060139687 -0.03660616833005534
000100 d8 23 13 ab 02 47 dd bf 78 91 f8 c3 c3 6d e6 bf
       -0.45745913225669943 -0.7008990123327257
000110 32 a8 ed c6 8a 95 e1 bf 9e b0 2f 78 77 eb e7 bf
       -0.5495046506232539 -0.7474934909237338
000120 aa 7b a4 34 b9 34 c3 bf 67 6b 53 3f ee 3a e5 bf
       -0.15004649229464678 -0.6634436833222538
000130 b4 03 cf f2 49 a9 b3 3f f2 c4 f8 8d c7 ef c2 3f
       0.07680189302392543 0.14794248993124587
000140 9b ae 70 97 24 59 96 bf af d9 69 96 60 d3 8f bf
       -0.021824428313421334 -0.0155398889448691
000150 a3 8a 99 b2 ae 5f b6 3f 79 92 96 7c c6 6a d2 3f
       0.08739749775262821 0.2877670494729397
000160 5a 8f b9 df 00 bb d7 3f d7 24 46 fd 81 1e d0 bf
       0.37078878257874737 -0.2518620465639975
000170 ca d4 aa b6 b3 f1 bc bf 62 1f e0 f3 22 43 ce bf
       -0.11306307992602452 -0.23642384441358916
000180 cb bd 9b 6a ee d3 e4 bf 2f 31 7d f6 a8 9c dc bf
       -0.6508705217547058 -0.4470617682570887
000190 7f df 0d 5a f2 28 e2 bf ef 32 0f f0 98 12 dd bf
       -0.5674983748312882 -0.45426009600923484
0001a0 a0 7a f7 af 93 53 d5 bf 4b 31 b0 fd 04 7c ce bf
       -0.33322612938165186 -0.23815977465745627
0001b0 04 ce 0a e2 03 c7 d5 bf 12 97 9f e5 4e 86 ba bf
       -0.3402719218676966 -0.10361188036003124
0001c0 37 66 d8 d5 af 2a 71 bf 5c 82 88 78 00 4d dd bf
       -0.004191099983950112 -0.4578248192865766
0001d0 c3 96 7d 21 e3 0f 62 3f cb aa 1f 76 97 e2 be 3f
       0.002204841246497975 0.12064501413230315
0001e0 5e 57 9b 97 8f 50 d9 3f 0f a8 ba 42 71 25 d3 bf
       0.39554204755164857 -0.2991603042270307
0001f0 c8 26 18 fa ff 7d 92 bf ac a9 50 b0 c8 c7 b5 bf
       -0.018058776511714197 -0.08507971100394823
000200 08 2e f7 9a dd 6c c1 3f d7 ed ca 7d 50 ea bf 3f
       0.13613481585194642 0.1246691043006004
000210 ea 8a ca 11 63 94 74 3f 16 e4 89 1f 61 4a c8 3f
       0.005024325361463447 0.18976987876865853
000220 0f d2 78 41 be ac c4 3f cb aa 68 65 11 37 d9 bf
       0.1615217036902696 -0.3939860811539517
000230 78 c0 19 09 78 10 ce bf 09 ab c1 97 4b 0a aa 3f
       -0.23487759060254 0.05085979678627523
000240 f7 06 c4 2f 87 04 e0 bf 6d cc 55 18 34 13 c8 bf
       -0.5005527432369651 -0.18808604419936917
000250 93 e5 11 2c 1e 1a d1 bf 98 ff ab f9 3a d2 d1 bf
       -0.2672191076631744 -0.27845644361513555
000260 ef 9b 39 76 4a 93 b5 bf 76 cf 87 3f 6c 3a b4 3f
       -0.08427873026231202 0.07901646185911013
000270 8e e4 2d 95 8f d8 b7 3f 3d 4f e7 8c 93 2a b3 3f
       0.09314820663520804 0.07486841383007188
000280 e1 58 8d 3a 1c 32 b2 3f 2a ad 1a 0d e9 ef d7 bf
       0.07107712201591056 -0.3740179660769224
000290 0e 91 8a 99 7d 79 8b bf 41 ea 2f 3c a4 53 a6 bf
       -0.013415318725784189 -0.043606884333673886
0002a0 ea a6 46 de 84 21 d4 3f e3 d2 1e 6e ec 78 c3 3f
       0.3145458384193335 0.1521277940461437
0002b0 20 8d cf 2a 9a 0b e1 bf 62 bc 70 c1 b3 2e a3 bf
       -0.5326662861010938 -0.03746568428356835
0002c0 11 97 70 3c e2 96 c4 3f 18 ea fb d8 a7 39 cb 3f
       0.16085460616266592 0.21269701094554772
0002d0 69 d6 d8 b2 bf d8 cc 3f eb 76 2d 49 ea c7 c1 bf
       0.22536464913143853 -0.13891342709660334
0002e0 a1 91 eb ee 26 ea 84 3f 35 6a 7e a6 85 a5 cf 3f
       0.010212234655633536 0.24723883275585626
0002f0 4d a0 71 f4 52 38 b0 3f 88 74 67 4e f4 0c a5 bf
       0.06335943668239104 -0.04111445862847868
000300 bc aa a6 45 06 92 cc 3f fd 14 12 a4 90 f8 c1 bf
       0.2232063140957815 -0.14039810191403737
000310 23 d1 e1 91 25 a5 c2 bf 32 71 0f b5 56 a4 bd 3f
       -0.14566487906598366 0.11578885956209176
000320 0e b2 74 e5 bb c1 c1 bf 7a 1a 5d d5 49 4a 9b bf
       -0.13872479156397372 -0.026650575301824443
000330 c0 d7 6f 22 2e f3 b4 bf 80 96 93 b2 76 09 95 bf
       -0.08183563557380946 -0.020543913506932743
000340 7e b8 bd ec 77 a6 e7 bf 1f d5 09 29 fe 07 e2 bf
       -0.739070856461481 -0.5634756852656756
000350 55 f4 d5 29 a9 91 db bf 5d ca 50 3a 97 7d ce bf
       -0.4307654293587054 -0.23820772502365886
000360 f2 48 10 b7 19 9c c1 bf cd 9f 6e 5e 41 9c e5 bf
       -0.13757630766537648 -0.6753241390588244
000370 6c 1d 3a 15 54 09 cc bf 0e d9 d0 c7 17 ee c3 bf
       -0.21903468166804474 -0.1557035184538979
000380 a1 b4 8c d3 30 93 d0 3f d3 14 f3 7f b3 b9 2d bf
       0.25898380908149404 -0.00022678676757529343
000390 bc c9 76 76 66 58 cb bf 6a 12 cc 4a 2a ea b6 bf
       -0.21363526138664024 -0.08951057745077554
0003a0 40 65 a3 6a 8d 88 d9 bf fe 28 b3 b8 8d d4 cb 3f
       -0.3989594975842756 0.2174241210798939
0003b0 a9 6c ea eb 90 7f d0 bf 17 7e 8c b6 8d be d2 bf
       -0.25778601683277685 -0.2928804667189708
0003c0 b1 bb 81 42 27 c9 c7 bf d9 1f f8 e4 b4 b2 c2 bf
       -0.1858262133350457 -0.1460786932004783
0003d0 51 28 07 67 a5 d6 c6 3f 4b 4d 11 5b 19 ea a5 bf
       0.17842547922765786 -0.042801658980034483
0003e0 bb fe 5f af 95 41 bd bf d9 a8 15 13 fe d7 c9 3f
       -0.11428199321380365 0.20190406734338387
0003f0 09 e7 1e d3 63 56 c4 3f 55 ed ea 91 88 af a4 bf
       0.15888641174915843 -0.04040171414586761
000400 41 82 6d d2 f2 3a ca bf 66 ed b2 44 02 ed c4 3f
       -0.20492396616738698 0.16348293642463857
000410 6a 58 c0 84 e8 36 8c 3f 59 d6 e9 01 90 f6 d3 3f
       0.013776604224443118 0.3119239824949083
000420 8f de 98 89 97 66 b8 bf 14 49 ef 2a 88 ec d1 bf
       -0.09531542882256815 -0.2800617617878214
000430 45 81 e6 cb dd 1c e3 3f 26 bc bc f4 7c 66 b1 bf
       0.5972737295560725 -0.06797009444265764
000440 45 6a e9 37 3a d8 d6 bf d0 0e 5b c7 36 2e ba bf
       -0.35694747409948874 -0.1022676693638076
000450 ba 8e 77 a9 9f 0a 87 bf 5e db cb 0b 3d dd c4 3f
       -0.0112507318107825 0.1630016620253753
000460 45 47 a5 88 01 96 d7 bf 2e 6e 09 99 f1 7b da bf
       -0.36853063911722855 -0.41381492562297495
000470 93 a9 19 24 0c bf bd 3f 72 d7 66 34 51 87 c6 bf
       0.11619640237191779 -0.1760045534007833
000480 37 6b 43 eb 06 a4 d7 bf cc 21 ab ec a2 63 e5 bf
       -0.36938641524254784 -0.6684126493865334
000490 3d a8 83 4c 1b fc e3 bf bd 7b 58 4d 2f 2f df bf
       -0.6245247358722349 -0.4872549300507066
0004a0 3e ed c9 e2 fb 9e e3 bf b9 ce b2 3b 31 b0 e8 bf
       -0.613157217928723 -0.7715078512178116
0004b0 8f ea 26 25 95 89 63 bf 94 52 d5 9c 41 9d d2 bf
       -0.0023849404326175615 -0.29084816280127623
0004c0 10 09 1f eb 77 4e e1 bf a7 64 4c 47 78 11 e6 bf
       -0.5408286659442485 -0.6896325485751235
0004d0 27 c0 43 39 70 43 e2 bf 57 e7 f6 3f 0d 01 cb bf
       -0.5707322233629427 -0.21096959708466542
0004e0 a6 64 c3 99 15 b3 bf bf 05 b3 db ff 93 ab db bf
       -0.1238263607405253 -0.43234729753639584
0004f0 c6 9e fb d6 1a 80 9f bf f2 c0 b9 52 95 99 dd bf
       -0.030762118693842287 -0.46249898031875525
000500 3b ae f8 ef 53 5e c4 3f 73 2c bd 72 30 0a cc 3f
       0.15912865846017774 0.21906095125664002
000510 93 e9 05 b4 34 21 98 3f ff 5c 0d 28 90 86 a9 bf
       0.023564170348870993 -0.04985476006430111
000520 7f e2 fe b3 ba aa d0 bf d4 0a af e2 14 e6 c9 bf
       -0.26042049005221907 -0.20233403271239203
000530 a2 e6 51 66 0c d4 e4 3f e6 18 b9 7b 3e f9 c2 bf
       0.6508848188816112 -0.14823132554210544
000540 d6 46 64 89 d3 aa cf bf 99 21 d6 96 96 dd 7b bf
       -0.24740070541934384 -0.006803119887429787
000550 f0 c3 04 be 20 39 c7 3f e5 9f 76 93 49 19 d8 bf
       0.1814309051347034 -0.3765434207984966
000560 08 b0 d4 7e 90 32 e3 bf 4c 23 a5 07 d5 67 c2 3f
       -0.5999224164165762 0.14379370568556238
000570 e1 70 74 b7 6b 4d d6 bf 31 ff 4b d1 68 4d 8b 3f
       -0.34847538867485467 0.013331240546449049
000580 d3 9c dd d6 fc d2 c9 3f bc 83 d7 df 9d 8b da 3f
       0.20175133220184324 0.4147715269046406
000590 e7 fc 28 63 15 06 97 bf ce 45 b2 65 d7 9f c0 3f
       -0.02248414437985682 0.12987797227519454
0005a0 70 10 a3 98 1a c4 be 3f a6 9b 47 a8 d7 0f 93 3f
       0.12017980791557803 0.01861512150380986
0005b0 42 31 4b 84 6d 00 c2 bf 4e 05 bc 58 ee 1d bf 3f
       -0.14063805541662516 0.12155046144836953
0005c0 f4 60 cb 4a 07 2c d0 bf 8e 28 ba b9 2d 35 d4 3f
       -0.2526872854628117 0.31574576508922625
0005d0 eb 31 51 eb 24 a3 a9 bf 1d 82 e8 9a 56 62 c0 3f
       -0.050072816586723544 0.12800104678991966
0005e0 ac a9 74 05 0c 36 a7 3f a0 74 f0 1a ec b3 c0 3f
       0.04533422056768485 0.13049079242128858
0005f0 b1 1d fd 81 79 99 c0 3f de 55 bc a5 e6 96 c1 3f
       0.129683674307882 0.13741763203203922
000600 53 d3 1d ff 34 00 cf 3f d8 cd cc 7a a9 79 d8 bf
       0.24219381768093715 -0.38242566101254516
000610 14 7e aa 87 9d ef b6 3f de 93 ce 31 42 31 d3 3f
       0.08959374010236615 0.2998815046688018
000620 ad f9 78 76 74 f2 d4 bf a2 cc c1 46 a8 aa d0 3f
       -0.32729827470384515 0.2604160967814072
000630 ec 3f 24 77 48 87 ae bf d1 71 4a a4 41 1a a8 3f
       -0.059625877898838414 0.04707532053473396
000640 35 cb 70 fa 65 31 d2 bf 53 35 44 db 2c eb d0 3f
       -0.2842650361737243 0.26435395634401465
000650 bd ed 2a af 95 73 9d bf 01 b3 d5 57 86 b9 c7 bf
       -0.028761233154666267 -0.18534926689917344
000660 82 db d5 c9 cb a4 9f bf 51 ca 99 19 d6 b8 ba bf
       -0.03090208453565025 -0.10438287854211949
000670 b8 d6 db eb 34 02 c3 bf 78 22 e0 60 54 1e 78 bf
       -0.1485048438695935 -0.0058882995636017
000680 8a 5a df 7c 1f 96 b8 3f 9a be 6d 8c d4 fe ce bf
       0.09604069517750183 -0.24215180260533914
000690 46 5b 31 da 16 5f b0 3f ad 88 c9 77 0a d8 63 3f
       0.06395094706509238 0.002422352261690261
0006a0 50 ef 30 d9 a8 f9 b6 bf 39 ec 2d e0 c0 2c d0 bf
       -0.08974700262564039 -0.2527315320255102
0006b0 ca 5d f4 c6 a0 bf a9 3f 3a 5b b6 af ba 4b da 3f
       0.05029013088840946 0.410872146219322
0006c0 25 95 f6 74 c1 06 d6 bf a3 ff bb 88 50 9f de bf
       -0.3441623346537475 -0.4784737906738831
0006d0 1e 34 e5 14 73 ce cf bf 4e 13 24 a7 71 ec b6 3f
       -0.24848783989219297 0.0895453484591375
0006e0 f3 2b 6f 12 35 bd b2 3f e6 d9 44 88 3e 29 db bf
       0.07319957447104723 -0.4243923502685035
0006f0 83 51 da 5c 25 82 cd 3f 4f e4 50 18 80 21 c0 3f
       0.23053423913792068 0.12602235019019978
000700 c7 33 c0 9e 96 fb bb 3f 80 20 e2 50 21 fe a5 3f
       0.10930768371345244 0.04295448410363267
000710 c2 39 6d 34 7b f3 d0 bf 3f 99 44 c0 e3 84 c4 bf
       -0.26486091728011385 -0.16030547035297535
000720 2c 1d 21 7d a3 64 c8 3f bd 63 6d 23 7a 57 ac 3f
       0.19057124719459162 0.055354897331830945
000730 d3 c1 1c 79 7c 28 b9 bf c5 f0 b8 bc f9 04 c0 bf
       -0.09827402073711448 -0.12515184130632498
000740 c7 51 0c e3 2a 06 c6 3f 38 1d cc 47 c6 9f a9 3f
       0.1720632179864323 0.050047107948609726
000750 09 0a 80 91 5f b1 8a 3f 11 95 a0 98 7e 2e c2 3f
       0.013033625247776308 0.14204390003684655
000760 76 44 76 d7 d6 bc 95 bf 2d 0e f7 c4 c8 c3 be bf
       -0.02122817697597098 -0.12017493065564429
000770 ab b9 89 7f 8a 39 bc bf 98 30 4d 40 c8 bd be bf
       -0.11025300611229365 -0.1200833470331325
000780 e0 dc 98 de b4 ef ab bf 31 6b d6 9a 3d b6 ba 3f
       -0.05456319062471393 0.10434327154363811
000790 96 10 fa 07 5e 88 a2 bf 6b 2d cf 92 29 0d cb bf
       -0.036196650003177996 -0.21133918445989805
0007a0 74 64 bf ff fe 47 d1 3f 43 ff 99 5a 23 9e 89 bf
       0.2700192925963798 -0.012508655741157454
0007b0 60 75 7b 62 d9 59 e1 3f 7d 5b dc 60 7a 17 b7 bf
       0.5422179149133335 -0.09020199646725575
0007c0 3e 23 79 55 d5 95 d0 3f 3f 5d 28 be 62 4b c5 bf
       0.25914510104171373 -0.1663630894188177
0007d0 4a 6c d8 10 5f 22 c5 bf 8b 8b 61 a1 ce d5 b1 3f
       -0.16511143038300907 0.0696686882015866
0007e0 76 93 9a fd 14 c6 c7 bf db 22 43 c4 43 b5 d0 3f
       -0.18573248274801885 0.26106352010951434
0007f0 47 c6 5b 8b 82 5b d5 3f f4 4d 28 52 cc ec a0 3f
       0.33371032342174484 0.033056626347526846

en1.bias f8 [200]
000000 ec 49 ba fe da 83 a0 3f b0 41 1f db 23 1f e6 bf
       0.03225597724408033 -0.6913012771347464
000010 5c d9 22 aa 5a ef c5 3f b9 a3 73 26 5c d9 c2 bf
       0.17136700923374348 -0.1472582996132397
000020 15 fc 36 42 e8 eb db bf 4a 81 dd 5e 0d 96 bb bf
       -0.43627363649642464 -0.10775836530729524
000030 de 82 df db 86 0f e5 bf ba 5e 5b ba c1 34 c7 3f
       -0.6581453604122449 0.18129750823458385
000040 83 2d e5 a9 37 a1 c1 bf 77 e5 e2 ff e1 d8 ca 3f
       -0.1377324657026798 0.20974373812149924
000050 d5 0d eb 15 07 ec c4 3f 66 4e 91 e4 39 84 d3 bf
       0.16345299310897468 -0.30494544335417684
000060 42 13 5e c9 d8 f4 a2 bf 5f 73 69 a9 06 0e e6 bf
       -0.03702428300952089 -0.689212160952234
000070 50 09 f2 e8 78 21 ee be 28 b5 8a 4b 73 6d ac bf
       -1.4367461771640097e-05 -0.055522540065206905
000080 a1 64 f6 be 79 2a b7 bf 65 da c6 24 30 11 a0 3f
       -0.09049187576455832 0.03138113449988537
000090 68 d8 e8 89 37 d7 da bf d5 b0 ec 07 61 6b df bf
       -0.4193858000538797 -0.4909288957012568
0000a0 73 95 c5 bd b6 48 c3 bf 28 ee 4b 92 bd 87 c3 bf
       -0.15065655008508436 -0.15257997172726445
0000b0 ab 8d 30 a5 e0 a5 d4 bf 6a 92 dc d1 c0 01 b2 bf
       -0.32262436038782977 -0.0703392517430729
0000c0 15 be 72 0b c6 4d bb 3f d1 9a 66 10 5c eb b5 bf
       0.10665548114297281 -0.08562255287561561
0000d0 20 a6 ac 6c 5c 7c 9b bf 5c 80 05 47 72 cb cd 3f
       -0.026841587193450533 0.23277119129034218
0000e0 b4 b9 ea 0b 10 76 a1 3f 5d a4 1d 08 55 21 c1 bf
       0.034103871779155 -0.13382971664694568
0000f0 6c 88 c0 bc 47 c8 b2 bf e4 a1 53 9d 6d 0f bb 3f
       -0.07336853368954771 0.10570416537269228
000100 57 52 43 6b cd 72 94 3f 8f 6e d2 b7 61 c3 8d 3f
       0.019969186469852875 0.014532817289640646
000110 a1 d6 33 c4 cc 28 5d 3f 14 18 00 b3 08 dc bf 3f
       0.0017797469779997981 0.12445120210767896
000120 55 6a 95 84 91 20 e5 bf 57 79 2f 21 aa 7d b2 bf
       -0.660225638344239 -0.0722299891490129
000130 38 d9 04 6c 4b d4 cf 3f 89 0c ae 92 a3 f8 d2 3f
       0.24866621755945473 0.2964257175846759
000140 9a 17 fc 4b 92 79 94 3f 6f a6 93 ff 5d 24 d7 bf
       0.019995008361568624 -0.361594676577261
000150 42 86 fd 65 9c 09 e6 bf 9b 03 01 23 8b 68 95 3f
       -0.6886732093809729 0.020906614314529653
000160 c4 40 6e 2f ce 2f bb 3f c2 06 8b ce 83 4a dd bf
       0.106198202686076 -0.45767302675458776
000170 56 e8 8f e9 08 a2 c3 3f 34 1b db 9c 57 9f 9e bf
       0.15338241009141268 -0.02990471739647234
000180 f3 ac c0 a1 53 8e c2 bf e0 8c d9 b0 26 ac 7d bf
       -0.14496846578672481 -0.007244254241956599
000190 9b 0a ac 4c 5f 34 e4 bf 7e e9 0f f8 00 3e bd 3f
       -0.6313930985928268 0.11422735267834658
0001a0 b3 00 30 9d ec 23 b6 bf 60 f2 48 e2 e1 1e c6 3f
       -0.08648566091142378 0.17281745480603927
0001b0 16 83 96 21 e0 8c a6 3f ff 5d 9f 7c cc 66 c3 bf
       0.04404354486474042 -0.15157466969570518
0001c0 13 44 7d f1 a0 22 e2 bf 29 64 08 f1 6f ed b6 bf
       -0.566727134379223 -0.08956050524319949
0001d0 35 72 8f df fd d2 b3 bf 73 3a b5 a1 fa 79 e4 bf
       -0.0774382277299502 -0.6398900183065294
0001e0 60 c5 af 0a 1a a8 46 3f 58 df f2 5d 50 9a b1 bf
       0.0006914260060268233 -0.06876089376134809
0001f0 ff 8c 74 65 97 2a ca 3f 12 1a 6d 81 08 2e e4 bf
       0.2044247861277668 -0.6306192901473102
000200 d8 92 aa 4f 09 49 56 3f 42 1c 85 b9 69 13 d3 bf
       0.0013601866655019081 -0.2980598746984847
000210 85 34 77 84 b0 d6 b5 bf 67 33 43 55 96 5d 83 bf
       -0.08530715211891689 -0.009455847241406535
000220 a9 74 2d d1 f5 fc c3 bf 92 1d 8e a6 1e ef d0 bf
       -0.15615723336933243 -0.26459471001768364
000230 ce 1e c5 14 2f e6 c2 3f 97 b8 5d 38 63 f4 e3 bf
       0.14764965547714443 -0.6235824681187009
000240 90 79 41 23 7a 40 c8 bf 57 59 36 75 37 28 be bf
       -0.18946768495056832 -0.11780115710857807
000250 cc db f4 68 b8 cf 88 bf c3 f1 ff 61 d9 80 b2 bf
       -0.012114945128457587 -0.07227858202526875
000260 84 59 7d cf cf 14 c7 3f 90 cb 4e f3 8e ea bf bf
       0.1803226245053332 -0.1246728271496933
000270 70 ab ae ac 00 c5 77 3f 55 73 c6 90 8b 12 65 bf
       0.005803110728190272 -0.0025723195924015987
000280 b7 3f 62 8e 09 1d 87 3f 3e 33 54 06 f5 f7 8d bf
       0.011285853059490465 -0.014633096938746367
000290 e9 71 e2 9a 70 81 b9 3f a1 9f 98 a3 3a 85 b6 3f
       0.09963134557114696 0.0879704141049147
0002a0 52 b1 b0 f9 c8 ae c4 bf 5c c1 b8 b2 03 82 e1 bf
       -0.16158401672272277 -0.547120904031583
0002b0 89 22 68 d3 d0 43 c9 bf 08 53 cc 24 f3 e8 b9 3f
       -0.19738207171055347 0.1012107815589155
0002c0 6c d8 c6 1d ef f6 db bf 43 35 58 54 3d 41 77 bf
       -0.4369466582096553 -0.005677451675649539
0002d0 42 0f 38 4c f2 c0 de bf f8 de 38 d4 f0 58 d6 bf
       -0.4805265182806019 -0.3491785118562656
0002e0 a3 e4 be 6e 37 ed 98 bf 32 ea 02 ea 5f 45 e3 bf
       -0.024342409262065556 -0.6022185869727024
0002f0 4a 42 03 c8 db d3 c7 bf 27 45 89 c9 d6 cf b4 bf
       -0.18615290895697206 -0.08129637165372526
000300 3e a6 53 03 96 0f 96 3f 84 44 f2 94 fb 85 d5 bf
       0.021543830826806103 -0.33630265756171007
000310 8a e3 4f 85 34 d1 e0 bf 6f 48 47 39 20 61 c3 bf
       -0.5255377391577991 -0.15140154644774692
000320 de 3a 3e 4a 74 ec c9 bf 44 1b f9 6d c2 6f c1 3f
       -0.20252851128721877 0.13622312898425026
000330 4c e6 87 7d 03 6f a4 3f a9 f0 47 47 98 1e e0 bf
       0.03990946681365112 -0.5037347213942854
000340 60 10 46 6b fe 5a 72 3f 3b 1c 68 93 e9 66 e5 bf
       0.0044813097232499766 -0.6688125494992002
000350 1a a6 ad 92 62 0c bf bf 03 a9 0e bc dd aa b3 bf
       -0.12128273087514466 -0.07682596055261474
000360 f8 ab f7 b6 2b 0d a8 3f 20 8b 92 b7 f1 c8 cc 3f
       0.04697548492898557 0.2248823305463583
000370 c1 23 ce 28 02 99 d9 bf 05 81 d6 a0 e4 8a dd bf
       -0.3999638937462429 -0.46160236079050804
000380 34 54 cf e6 90 c7 92 bf 69 24 d8 f6 18 11 c6 3f
       -0.018339408957974437 0.17239677479691132
000390 65 a7 31 a8 ea ef a2 3f c9 cf 61 ba 5b ee b4 bf
       0.03698666861676151 -0.08176205921500847
0003a0 ba ab ec bd 31 53 e5 bf 09 47 61 dd ee c3 93 3f
       -0.6664055547201919 0.01930211282917241
0003b0 21 92 e1 86 94 d6 c0 bf a1 a3 78 7f 15 92 b6 3f
       -0.13154846750252694 0.08816656457987772
0003c0 91 8e 1d 09 a1 6a d4 bf a8 00 3b 26 bb 91 b7 3f
       -0.3190081204431659 0.09206742938386248
0003d0 94 70 e0 d7 f7 74 b8 bf 78 0f ea 30 ef b3 a1 3f
       -0.09553479214122468 0.034575915070518215
0003e0 22 6b 7a c9 1a 2a db bf e2 1e 6d 95 aa 01 a9 3f
       -0.42444486308675 0.04884083818484243
0003f0 33 54 70 eb b9 54 c0 bf 6e 5e 56 2a 23 31 a0 bf
       -0.1275856399157945 -0.03162488834203435
000400 d7 2e 44 35 70 1c 7e 3f a1 68 cb 1c 2d 83 a9 3f
       0.007351339638500063 0.04982892014022978
000410 69 e2 83 1a 5a a2 de bf ff ad 44 8c 33 6e c3 3f
       -0.4786591776787988 0.1518005785850249
000420 92 bd c8 70 cd 40 99 3f e1 c7 de 9e e5 ce dc bf
       0.02466126442794587 -0.4501279880015528
000430 41 49 5a 13 e8 6c b9 bf 1c 8a 91 c4 8b da e2 bf
       -0.0993180320022349 -0.5891779746273786
000440 fa e7 85 de 23 7a 9f bf 81 ce 49 32 8e db a4 3f
       -0.030739365059595493 0.040737575186452275
000450 d4 3b 6a ff a9 ae e3 bf d1 0f 37 97 7a 39 cb bf
       -0.6150712956022013 -0.21269161590146138
000460 2e ca 6d 1e 4f 0e b7 bf 64 52 f2 d3 7d c0 c9 bf
       -0.09006208889858477 -0.20118687485650633
000470 80 1f c9 17 40 0d a1 3f a2 4b f0 c7 34 41 a1 3f
       0.03330421724655164 0.03370060864121817
000480 ec 21 07 da a6 c5 d6 bf 76 fe 4a c8 00 09 d0 bf
       -0.35581370631965004 -0.25054950294359146
000490 24 2b 18 b9 a2 b6 dd bf 5c 38 34 c5 55 c3 cc bf
       -0.4642721946299153 -0.22471115235424832
0004a0 4e ff 6d 73 05 9a e5 bf 99 01 ef 9e e0 5c be 3f
       -0.6750514273153188 0.1186046970387963
0004b0 8f dc b3 f2 4c 4b c1 3f 40 bd c2 c2 a8 b5 bc 3f
       0.13511049128257865 0.11214689974689396
0004c0 68 88 20 50 7f a5 cd bf f8 40 ee 45 39 40 ab bf
       -0.23161307728247782 -0.05322436312337858
0004d0 f8 81 66 85 35 40 b8 bf 09 f5 9c b7 80 00 81 3f
       -0.0947297526058789 0.008301740268161344
0004e0 d4 24 c4 f5 dd 88 c4 3f 90 35 57 c9 67 c4 a3 bf
       0.16042685032178972 -0.038607829406468785
0004f0 23 c6 b2 0d 69 71 e1 bf 66 47 01 a0 5c 39 85 bf
       -0.5450940387292501 -0.010363315232243497
000500 e0 29 98 10 28 1c e3 bf 2f c4 3f d0 7b 2e bf 3f
       -0.5971870731457862 0.1218030341549514
000510 e1 0a d1 04 10 a3 b4 3f 42 33 c7 c4 11 e8 b3 3f
       0.08061313741294952 0.07775984815743889
000520 da 87 d0 78 55 ff bf bf 5a f5 c0 fa bd 48 9b 3f
       -0.12498983573507819 0.026644676618379527
000530 ed 47 d7 9a 6d 3e de bf 49 f7 81 a8 20 2d 87 3f
       -0.47256031151948613 0.0113165427612746
000540 b7 e0 4d 01 ae 11 de bf a6 56 91 99 6c 3f b0 3f
       -0.469829083703654 0.06346777676784629
000550 20 20 76 af c4 5f b7 bf 31 fe da fc b0 f2 e3 bf
       -0.09130505832411062 -0.6233754099448047
000560 ad e6 6a 4f a9 69 e2 bf 6d e0 0c 6a 2f 74 c0 bf
       -0.5753981162190108 -0.12854569128262786
000570 a2 a9 59 80 22 93 c3 3f 44 ae ea 6b 3d 58 cd bf
       0.15292769686795987 -0.2292553688943021
000580 34 1d 93 ee 26 95 b0 bf 80 f5 24 f3 dc 5c d4 bf
       -0.06477588009430663 -0.318167912908244
000590 e0 31 18 d6 ed 00 e2 bf 42 08 6a 77 12 5d 4f 3f
       -0.5626134091885966 0.0009571399849195377
0005a0 21 a5 ea 3a d6 14 e1 bf e0 e3 92 a2 fb 8b b0 3f
       -0.5337935591425415 0.0646359702976862
0005b0 bc a2 df a5 6a ff a1 bf d3 06 c5 9c 05 1f d0 bf
       -0.03515179896186768 -0.25189342793974595
0005c0 b0 06 0f 31 6b 08 b8 bf 3f 75 24 6e e6 2a b0 3f
       -0.09387845943185869 0.06315460385345249
0005d0 51 77 8a 66 76 ad a8 bf f7 3a f2 f6 f3 92 b6 3f
       -0.04819841386527791 0.08817982462845096
0005e0 88 94 9a f1 7b 42 d0 bf 6e 53 21 3f f7 24 c1 3f
       -0.25405787080882947 0.1339406069042996
0005f0 f3 c3 ee 28 3c aa b6 bf 90 30 e9 a9 0f c9 e3 bf
       -0.08853507994969316 -0.6182936018535816
000600 ae 06 20 f7 ff 25 c1 3f f8 41 d1 62 f4 81 e2 bf
       0.13397216383605354 -0.5783636026408763
000610 01 ae 96 dd 51 f9 88 bf e9 66 7f 49 d1 d7 ca bf
       -0.012194289755675493 -0.20971122826340796
000620 68 2d 4b 96 37 e8 d7 bf c7 0f 2a b0 a4 cf ce bf
       -0.37354840924373045 -0.24071177102825755
000630 cb 48 ce ef ae 13 d7 bf fd d1 1e 84 e8 68 d9 bf
       -0.3605763761380671 -0.3970280924070549

en2.weight f8 [100, 200]
000000 e2 c1 a0 2a 06 14 ca bf 4e cd 99 b3 7e de b7 3f
       -0.2037360866684273 0.09323875317368399
000010 c2 f9 c0 44 94 70 a8 bf bf a6 fd af c8 4c c1 bf
       -0.047733910935210414 -0.13515575974752456
000020 c8 48 75 40 9a fe c3 3f 04 d2 02 73 ed 6f c4 bf
       0.1562073530900021 -0.1596657573296768
000030 0b 8e bc c2 6e 23 ba 3f 27 58 90 39 9d 24 96 3f
       0.1021031594687473 0.02162404693452671
000040 e8 97 d8 ae cd fc c0 bf a1 f3 4a df 0a 2f c0 bf
       -0.13271494901090297 -0.12643562224357388
000050 bf 04 53 e9 88 b2 d3 bf 2f b9 59 7a cd d4 c2 bf
       -0.3077719000394374 -0.14711922144074083
000060 90 91 c6 f4 67 42 85 bf 76 57 13 bc da 42 c5 3f
       -0.010380565793476376 0.16610273536087633
000070 ea 3e fa 6d 57 28 c0 bf ad 76 0f 2b c8 9c ca bf
       -0.12623112554546562 -0.2079096040969736
000080 a1 d7 d4 e5 0b da c1 bf 42 9b eb 8e 26 cc b7 bf
       -0.13946675035702774 -0.0929588412214857
000090 94 36 da 4d 24 75 b6 3f 48 95 d2 e1 01 ac c3 3f
       0.08772494221394772 0.15368674780362768
0000a0 4e 56 9d e5 19 a9 b9 bf cb 8a 89 84 54 1b c1 bf
       -0.10023652892899657 -0.13364654990717492
0000b0 de 5e 6c 65 bb 4a ba bf 51 5d c8 ad 69 2f c7 bf
       -0.10270282007365547 -0.18113442407114147
0000c0 57 8b b3 bc d4 af c4 bf 32 19 cb d1 77 5b c8 bf
       -0.16161593641217095 -0.19029138320747446
0000d0 1f 27 70 03 58 00 c2 bf 8d 9f d4 2d bf b1 9d bf
       -0.14063549201846912 -0.02899836270549332
0000e0 a6 c8 22 af 11 5c be bf db 9c f7 b6 c5 09 bc bf
       -0.11859236264970949 -0.10952411381696285
0000f0 70 76 85 0e 7e b3 c7 bf a5 69 d3 c6 f3 3a c6 bf
       -0.18516517361688356 -0.17367407997410314
000100 50 2d 9c 53 eb 1b bb bf 68 ae d4 64 58 a9 bc bf
       -0.1058947638631953 -0.11195900403679959
000110 66 aa 6d 84 9a 5d a2 bf 46 1a bf c8 7b fd bd bf
       -0.035870388665746586 -0.11714910174405543
000120 48 1d ec cc 46 7e c1 3f eb 42 2e f7 57 b9 cc bf
       0.13666615491841072 -0.22440623826380288
000130 3e a5 f7 55 03 2b d5 bf 4a 8e ee 14 83 65 c3 bf
       -0.33075030703783515 -0.1515354015547124
000140 85 d8 06 d9 ce 5b a1 bf 7d af 35 3a 4a 13 c0 3f
       -0.03390356444599355 0.12558868257780978
000150 bc c0 4b 86 2e a8 c4 3f 38 6a 08 ec 35 0f b3 3f
       0.1613824992887255 0.07445084583779582
000160 a7 d5 ac 96 18 4f aa bf fa d2 9b 04 fc 90 ba 3f
       -0.051384704964600396 0.10377478706852719
000170 ba db d9 29 be eb b1 bf 3c a2 11 67 1d 49 c4 bf
       -0.07000340005639219 -0.15848128826771013
000180 42 5a f2 0f ba ca c7 bf ce 17 5c c5 81 29 bb bf
       -0.1858742311348625 -0.10610209530213341
000190 e4 04 fe 34 62 fd b8 3f cd b5 34 37 68 e1 a6 bf
       0.09761632722622299 -0.044688469637872076
0001a0 ac a4 d3 4f 25 78 c1 bf 4a 75 75 21 6b 7f b2 bf
       -0.1364790572909319 -0.07225675169816728
0001b0 f2 69 80 cd 52 f9 a6 bf 1f f2 26 ae a3 81 bb bf
       -0.04487093695225387 -0.10744688989411387
0001c0 e9 4c 84 69 71 4f 91 3f 75 cf 48 1d c6 32 a9 bf
       0.01690461355708531 -0.049215498995549924
0001d0 1d c4 98 ec af 88 d2 bf 8d 13 09 fa 00 de ae 3f
       -0.2895927248492301 0.06028750469389541
0001e0 16 05 e1 35 1c d9 cd bf 7c ab e4 c5 07 65 9f bf
       -0.2331881774025894 -0.03065883775085919
0001f0 c5 e9 84 87 ae c6 cc bf 77 c0 03 3d da 9a c1 3f
       -0.22481328599117326 0.1375382230685351
000200 33 ce 62 00 f7 bd cb bf 38 22 58 a3 2c a1 bd 3f
       -0.21673476713987014 0.11574057567498464
000210 f4 96 bf 80 d8 7e 8d bf d0 f0 84 34 96 4f c5 bf
       -0.014402095250214832 -0.16649129452151223
000220 3b 77 a8 08 91 9a b9 bf 41 2d f4 84 cf b0 b2 3f
       -0.10001474820498128 0.07301041599219095
000230 41 89 22 e5 0b ba cc bf de 7f e7 e8 1d 5c b7 3f
       -0.22442768753269074 0.09124934135570537
000240 ac 96 ac d6 f2 a2 c5 bf 80 bf 2f 74 7a 91 c5 bf
       -0.16903529626977354 -0.16850214646501271
000250 8f db 3a ef 50 67 c8 bf 39 1f 37 62 07 02 c2 bf
       -0.19065295869014817 -0.14068691535634928
000260 96 be 89 6e d9 e1 c0 bf 1e df f7 3e da 2a ac 3f
       -0.13189237496725487 0.0550144388070619
000270 2d bf 86 e0 b1 d6 a1 bf c4 f2 b5 6b ce 9a b9 bf
       -0.03484111657905795 -0.10001840715080862
000280 8e 09 52 13 84 20 b1 bf d6 64 1b 74 f4 3c 87 bf
       -0.06690240356150509 -0.011346730988793057
000290 4c 4f 60 65 e5 bf bc bf c3 73 ab d8 c4 77 c0 bf
       -0.11230310177807928 -0.12865505771233474
0002a0 96 86 80 fb 67 bd bf bf 06 3d 5f ed f9 ff ae 3f
       -0.12398385896860939 0.06054669401748396
0002b0 7b b6 3e 7a e7 1c cc bf 74 c3 df f3 06 04 c6 bf
       -0.21963208645813723 -0.17199789913095354
0002c0 d2 b8 42 c7 44 77 a9 3f aa 1f 1f ea 83 81 b2 bf
       0.04973807270413179 -0.07228874650820552
0002d0 4c e3 29 50 12 b8 ab 3f ac 3a a0 00 96 49 c2 3f
       0.054138729367827126 0.1428706648880128
0002e0 e5 26 f1 3e 4b 04 c1 bf a9 38 9c f1 fb fe c3 3f
       -0.13294354031886893 0.15621899888396243
0002f0 a2 69 e2 e4 47 e0 c2 bf c4 0f 36 7a ba 9f ce bf
       -0.14746950794217378 -0.23924952475874595
000300 b6 fa 48 d2 11 77 b9 bf 48 4a 58 ba da fa c4 3f
       -0.09947310813820817 0.16390546892997038
000310 1f 72 05 b2 01 c5 b4 3f cb 40 b0 e5 6a 80 cd bf
       0.08113108249876476 -0.2304814931417297
000320 0c 4e 90 ee a4 ca b8 bf c6 42 89 9c 43 0b c6 bf
       -0.09684210609730587 -0.17221875327461172
000330 5a 9f 96 ca 7d 10 c2 bf ba 1d 51 75 b4 ee b2 3f
       -0.14112827674875456 0.07395484794789456
000340 1e 53 42 ee af ef c2 bf 0b 30 cf 8c 3e a6 c6 3f
       -0.14793967374557665 0.17694837451415454
000350 bb 10 4f 56 3c fe bb bf 00 13 85 70 12 b7 c9 bf
       -0.1093480787959064 -0.2008994149602117
000360 9e ab 97 25 b2 b2 b4 bf 6e 4e da a6 f3 1d d2 bf
       -0.08085168283257224 -0.283078110639713
000370 a4 01 60 f4 4f ab aa 3f e7 a5 cb 1e fb 27 bc 3f
       0.052088259297309564 0.10998506070941226
000380 17 28 96 19 c2 19 c7 bf fc da 80 da 67 ff c5 bf
       -0.1804735779699633 -0.17185686272724598
000390 42 78 28 65 4b 5f c9 bf 2f 7d 36 e3 07 b8 cb bf
       -0.19822065772399539 -0.21655367464425399
0003a0 f6 44 34 85 80 05 be 3f ab e3 e2 c3 a7 bc ca bf
       0.11727145435385808 -0.2088823038555153
0003b0 25 a3 94 1f fe cb bb bf 61 5e f5 56 85 9e bd bf
       -0.10858143111239522 -0.11570008633622698
0003c0 e3 75 5f 3a 58 b6 b9 3f 91 d1 89 57 23 1b c0 bf
       0.10043860840911338 -0.12582818769773188
0003d0 a7 15 5a 23 7e 1a ce bf 24 35 66 f5 0e cf 82 bf
       -0.23518349386374135 -0.009183995117178663
0003e0 ad 32 77 a3 fe de c3 3f ab bf 7d 1a 50 b3 bb bf
       0.15524275762290554 -0.10820484778173405
0003f0 a7 f2 b8 47 06 c3 cc bf 82 23 29 38 a7 c2 cb bf
       -0.2247016763884819 -0.21687784425946793
000400 b6 a7 11 89 59 3a bc bf 1f 31 ec 2f a7 04 cc bf
       -0.11026534649286543 -0.218892000579566
000410 e6 bb c7 97 cc 01 c5 3f d3 ba be dd 92 bc d4 bf
       0.16411740695136173 -0.3240096250037087
000420 a9 f3 f1 24 a5 c2 ba bf 7a 85 06 65 44 1c b6 3f
       -0.10453254844646999 0.08636882273142091
000430 79 c9 b9 ae b8 7c a3 bf 72 a0 6d 20 1a 34 b5 3f
       -0.03806092388994648 0.0828262643022997
000440 bd 8a 83 2c 05 9c cc bf 05 6e 4b 62 27 1d c0 bf
       -0.2235113589623178 -0.12588970469992958
000450 16 73 d7 1f fa 93 bb 3f fc 9a 55 3a a5 b8 b3 bf
       0.10772670056708153 -0.07703621553592294
000460 dc af b8 48 28 e0 af bf 06 e0 30 df 19 0b b5 bf
       -0.06225705993378458 -0.08220063876149206
000470 3b 05 76 ba de 32 c2 bf 76 d1 40 a7 ca 78 b4 bf
       -0.14217743019620763 -0.07996813376741393
000480 b3 68 4b 7e 1e e8 b5 3f db 23 8a 6a 86 a5 c2 bf
       0.08557310660708843 -0.14567642404679657
000490 6c b5 77 b4 79 e2 bd 3f 42 65 54 86 b8 27 b1 bf
       0.11673699050853309 -0.06701234130413972
0004a0 b1 40 41 15 2b 21 b5 3f e5 c1 55 0d 87 12 b9 bf
       0.08253735798757834 -0.09793895793496395
0004b0 34 05 01 ef 2e 07 cd bf 1d f8 94 4b e8 e3 c3 bf
       -0.22678171796909796 -0.1553926819851207
0004c0 82 00 f0 66 33 05 ce bf d6 77 6c 0c eb 3d a4 3f
       -0.23453371549840446 0.039534898058476806
0004d0 39 2b 47 b4 8a 6d bf bf 12 b6 fa 7b be 9c 95 bf
       -0.12276522542303504 -0.021105743710611753
0004e0 a8 53 3d c6 54 29 bd bf 9e c9 50 b0 4b 2f c4 bf
       -0.11391191329796746 -0.1576933489719296
0004f0 49 b5 48 80 f4 55 ad 3f ee 5a 68 e8 e5 d0 c5 bf
       0.05729641023604388 -0.17043756340054678
000500 a7 5e 72 56 b7 a4 b2 3f 4f b7 22 ea 5f 8b bd bf
       0.07282586918369792 -0.11540793863488584
000510 59 91 b9 0a 94 3e c4 bf 0b 81 12 e0 db 44 a8 bf
       -0.15815973781276219 -0.04740035162217467
000520 4e 1f 80 39 a2 34 bc bf eb f9 62 6f ab 0e b7 bf
       -0.11017812637157684 -0.0900675913753514
000530 84 53 93 05 12 c3 9a 3f b1 0f 7d fc 3f f5 b4 bf
       0.026134759512234776 -0.08186721719999814
000540 b8 be 07 ff 51 19 a6 3f 21 31 50 b9 54 d5 c5 bf
       0.043161928540823735 -0.17057284401415365
000550 a4 f5 d0 27 c8 fd 99 bf d1 e5 fe 4e 69 ef b3 3f
       -0.025382163458052567 0.07787187746625725
000560 f6 52 8e bc 58 1e c1 3f a0 3f 8d 15 e6 7a be bf
       0.13373860556443845 -0.11906278635183165
000570 9c d8 41 c0 9b 63 c7 bf 25 ee 39 a3 fb 47 b4 bf
       -0.18272730720099595 -0.0792233727933583
000580 b1 76 49 94 e7 1c c3 bf 49 c0 fa de 50 65 c1 3f
       -0.14931959858488633 0.13590441596670846
000590 7f 08 32 2f 71 9b bd 3f 63 34 d3 d1 34 c7 c8 bf
       0.11565310861809229 -0.19357929463731968
0005a0 cb ec 4c 04 06 59 c8 3f df 6f 28 82 14 7c 54 3f
       0.19021678171143316 0.0012502861287719753
0005b0 54 e0 80 f7 dc 70 c4 bf c4 dc ad cb cc 6a 6d 3f
       -0.15969431004646373 0.0035909652628408357
0005c0 25 34 35 35 d0 64 60 3f b9 4c 3b 05 db 88 b6 bf
       0.002001196533149246 -0.08802574994779179
0005d0 1e 6a 8e 5b a3 5b b2 bf 74 5f 0a 51 1d 0b b0 bf
       -0.07171078667889971 -0.06266959408310219
0005e0 61 52 b9 da c8 05 c7 bf 7e 88 20 8a 29 b4 a8 3f
       -0.17986403159979417 0.04824952899095168
0005f0 5c 28 e1 4b 12 24 af bf be 39 f7 5b 54 60 af 3f
       -0.06082207847846696 0.06128181097630002
000600 08 d3 1d f0 53 c6 c0 bf 1c 20 34 a6 11 d3 c5 3f
       -0.13105248665274183 0.17050381293688666
000610 3b 4a 65 83 28 c2 bf bf 4f 86 77 c2 e6 0f c5 bf
       -0.12405636985685302 -0.16454777236417548
000620 3c 3d 45 84 6c f5 bd 3f b5 44 6c 90 c8 5b bc bf
       0.11702612141856589 -0.11077550435972479
000630 d3 eb f8 35 21 95 b2 3f 08 44 a3 2e ca 0d c3 3f
       0.0725880390900067 0.14885833050951214
000640 a8 67 1d 64 83 26 af bf b2 ae 93 17 9a 5e d0 bf
       -0.060840707751324274 -0.2557740431063663
000650 4f c2 5e 90 3e f6 a0 3f a6 77 63 01 09 64 b1 bf
       0.03312869560557329 -0.06793266567134867
000660 3b 40 64 1e 6c 04 c5 bf 29 66 f6 5f 7f 2d 96 3f
       -0.16419745906796543 0.02165793441017719
000670 e3 7f 39 98 60 3b c4 bf 3d 03 aa 79 60 e6 6e bf
       -0.15806205208627863 -0.0037719616205439664
000680 5b d2 d1 fe 90 34 a3 bf 23 f9 44 53 7d 10 b2 bf
       -0.037510424714956435 -0.0705641105932711
000690 a9 f5 31 92 e8 2e b1 3f 10 03 96 d2 07 7e 8d 3f
       0.06712201661317486 0.014400540460657335
0006a0 63 de a7 45 28 e1 a5 3f 7d 72 0c be 45 9b cb bf
       0.04273343897142181 -0.21567603854863995
0006b0 c2 1a 9e 86 a5 8a af bf bf 1e 66 c9 de dd b0 bf
       -0.06160466450005721 -0.0658854715057897
0006c0 d5 e1 a6 d6 34 5c 87 3f e4 33 79 58 e3 2b 94 3f
       0.011406338501601812 0.01969866969584534
0006d0 ee e7 e2 d6 d7 6e ca bf dd d1 80 c5 39 e7 c4 bf
       -0.20650766365525847 -0.1633064474459748
0006e0 a9 6f 1b 04 99 01 96 3f f0 5a 61 61 78 8e b9 bf
       0.02149046981399719 -0.09983017327736454
0006f0 a6 5f 76 e5 d1 6d 9b 3f b0 6a 5b 14 c8 0f bc bf
       0.026786117201112035 -0.1096158075046485
000700 ad c1 f4 9b 4a 5b 9d 3f 97 8d 94 64 43 b6 c2 bf
       0.028668561714938857 -0.14618723307749512
000710 ea d5 3b 9b 0d 00 48 bf c7 a1 64 89 56 ee b8 bf
       -0.0007324282109652501 -0.09738674978564808
000720 61 d0 85 f7 3e 1d a1 bf ae 8f 1e 78 2e 46 b0 bf
       -0.03342625400083033 -0.0635708850155072
000730 3e ba 63 6c 43 73 94 bf 27 f8 c7 90 1e f8 67 3f
       -0.01997094487244965 0.002925929735510219
000740 ad 05 25 cf 47 a7 aa bf d9 3e 1d d1 74 0f 9c 3f
       -0.05205749896641563 0.02740271116573365
000750 1e e0 9b 24 e0 f2 90 bf 71 7b 30 19 ef c5 6f 3f
       -0.01655149672930644 0.003878561963133569
000760 97 0d d7 93 c5 f0 d1 bf 09 86 88 4d 26 b3 b0 bf
       -0.28032054364686004 -0.065233606270816
000770 5b 8e ce c4 af a0 b3 bf 34 5b b1 87 b2 02 9a 3f
       -0.0766706328855035 0.025400914699584123
000780 ae 21 30 31 d5 49 ab 3f c8 a9 35 e4 1d 18 cc bf
       0.0532976744216883 -0.21948598521278329
000790 27 0a 0f 2d 75 08 c5 bf 07 17 e3 a8 6f 5b ce bf
       -0.16432060909399235 -0.23716541048468562
0007a0 4f 24 66 3c 98 48 61 bf 97 b0 d2 86 4e e1 d2 bf
       -0.0021098111494138104 -0.29500163236912996
0007b0 87 68 c9 33 28 e2 a6 3f d2 a8 5c 4d 74 72 68 3f
       0.044694191285729316 0.0029842635657547434
0007c0 14 73 19 6f 5d 04 7f bf f5 99 6c 25 25 da 98 bf
       -0.00757252214097261 -0.024269657525246974
0007d0 3d 9a 00 23 60 7f c1 bf 41 4f a3 db 29 f4 b1 bf
       -0.13669969281291286 -0.07013188946012595
0007e0 d5 07 d4 4b e8 c6 b6 bf 02 18 78 d6 c9 16 92 3f
       -0.08897258616710187 0.017665055956989313
0007f0 1d 41 3f 45 08 7b 78 bf f5 15 ea 7c f4 e5 67 bf
       -0.005976707750918101 -0.00291726829101679

en2.bias f8 [100]
000000 9d d2 1a 50 c9 5a cc bf 9e 65 d1 33 b6 9e 95 3f
       -0.2215205804001429 0.02111324969550809
000010 38 c5 11 ea 08 77 a2 bf 6f 2e 8f dd a0 58 71 bf
       -0.036064413617064195 -0.004234913235403689
000020 84 71 de a5 11 2b ae bf 03 99 f2 63 38 ef 90 3f
       -0.058922339914008 0.016537552929229992
000030 9c 93 04 22 1f 62 ce bf 10 3c a4 91 a1 f9 d0 bf
       -0.23736943398503463 -0.26523627493674073
000040 84 d7 cb a4 78 46 d3 bf 5d 0b a3 43 20 2f d3 bf
       -0.3011762246454668 -0.2997513447300458
000050 7d f8 f2 d4 78 0f 98 bf d5 84 b3 2c 14 cf d3 bf
       -0.023496520993596882 -0.3095140873466112
000060 97 84 35 a5 d2 b4 82 3f d5 b0 8b 3f 83 24 a1 bf
       0.009133954684047913 -0.03348169470504706
000070 55 6f eb 66 2e 8d ce bf c4 9f 9b c2 37 c3 9d bf
       -0.2386835100686492 -0.029065009358333574
000080 2e 26 16 cf db a1 b2 bf a3 53 9c f8 ca 2d b3 bf
       -0.07278226667235607 -0.07491749353023507
000090 d2 79 d0 3b 26 19 84 bf 46 5a 29 69 17 d7 a1 bf
       -0.009813593578709954 -0.03484414252004746
0000a0 ff f8 8c 23 aa 42 a6 bf c9 0f ec 35 be b1 a4 bf
       -0.04347736057251161 -0.040418571550645384
0000b0 8d ab 14 94 ff 3a 39 3f f4 9f 0b af 93 fb a9 bf
       0.0003849863024522553 -0.050747504346702416
0000c0 50 22 cb e1 65 9d 6f 3f 2e 0c be 94 a3 67 d0 bf
       0.0038592328913618426 -0.25632562184927365
0000d0 53 55 f1 06 19 de a1 bf b2 66 31 ce b0 ce af bf
       -0.0348975964522348 -0.062123799486199074
0000e0 a3 cc ce 89 38 18 b1 bf 34 40 53 81 14 8c a4 bf
       -0.06677583088348853 -0.04013122633625735
0000f0 7e 5c 48 f1 14 4d af bf a5 9f 4a 3f af 55 aa bf
       -0.06113496251435267 -0.05143497130967426
000100 2e 7e 9a d7 84 31 d1 bf f0 4f e3 d8 0b a0 b2 bf
       -0.2686473947050868 -0.07275461239925085
000110 1d f2 97 6c 20 98 b7 bf 55 8d 91 f1 b7 d9 d0 bf
       -0.09216501857003619 -0.26328848448448144
000120 e0 34 e4 b8 04 23 ca bf ee ba b8 49 95 cc d2 bf
       -0.20419367816831535 -0.2937367649018786
000130 ca 2a 1c d2 64 7b 9a bf 32 7b 50 60 c9 2a 9f bf
       -0.02586133510980452 -0.030436655524790975
000140 0b e3 e8 b2 ce 9c 75 bf 2e d1 8e 17 5d 81 8b bf
       -0.005276496331639856 -0.013430335313252852
000150 87 6a c9 14 d7 14 b0 bf 35 61 92 ae 1c d7 c9 bf
       -0.06281799561967648 -0.20187719844830956
000160 b1 e0 b7 c3 d9 a8 d6 bf 5b 80 06 7f cd ee 9a bf
       -0.35405582535851027 -0.02630158508111467
000170 6a fc 52 70 eb d3 a6 bf 2b 27 f0 aa d1 26 b0 bf
       -0.04458556886810856 -0.06309233115476036
000180 d9 e5 1f c4 28 df 95 bf 8b a6 37 c2 63 7d 8a 3f
       -0.021359097452636398 0.012934474339050503
000190 4b 6c a4 3f ed 92 b5 bf 99 a1 54 7f 53 af 99 bf
       -0.08427317432180918 -0.025082878729479317
0001a0 d4 9e 56 46 aa b9 cf bf 3d 9f 9d 10 16 63 a3 bf
       -0.24785355028620037 -0.03786534264400963
0001b0 64 e3 e3 88 1d 0d a1 bf ff a8 03 dc ec d0 b0 bf
       -0.03330318733237084 -0.06568794604723747
0001c0 ae 00 eb 46 87 8e a9 bf af 02 f0 11 36 48 b4 bf
       -0.0499155305928992 -0.07922685563972708
0001d0 20 21 71 44 63 6f a4 bf be c3 f4 2e 21 f4 b3 bf
       -0.03991232119057231 -0.07794387241734932
0001e0 8a 55 ad 1d c0 67 94 3f 12 34 94 8a dc 5c a6 bf
       0.01992702656874238 -0.04367722694050981
0001f0 69 b5 5f f1 12 00 9f bf 4b bc 96 4e 0d 41 8f bf
       -0.030273719770709393 -0.015260795555915993
000200 0b 88 ae 46 f6 6f d6 bf 8c fe d5 03 5f a3 9e bf
       -0.3505836191417308 -0.02992008648788995
000210 d5 62 04 ff 59 fc b6 bf 63 33 cb 75 b0 1c cb bf
       -0.08978807903293824 -0.21181302787445153
000220 f8 a9 63 ee a7 9e 74 bf 84 0a a8 28 95 b4 a0 bf
       -0.005034118634493094 -0.032627736294689874
000230 42 01 a1 99 93 83 81 3f 58 dc 0e 54 e6 a1 a5 bf
       0.008551743627436385 -0.042250821839325325
000240 36 37 c3 25 7d f9 a3 bf fd f9 9a 52 e2 64 81 bf
       -0.03901282392472043 -0.008493202348629042
000250 bf 83 75 da 96 2f 7f 3f a2 36 58 e1 7c bf d4 bf
       0.007613744040413316 -0.3241874886160564
000260 00 d2 90 5c e9 c8 81 3f 2d c3 44 6a 78 9a cb bf
       0.008683989655858149 -0.21565156163117064
000270 15 67 b5 b7 d8 ff ce bf 69 72 2d 39 a9 79 ad bf
       -0.24218281717440307 -0.05756882498710498
000280 24 54 20 f8 60 28 a1 bf 57 f0 f8 7d ab b0 b2 bf
       -0.03351119068990041 -0.0730082685994956
000290 09 9c 18 a1 21 2f a9 bf 01 22 35 3d 88 79 c1 bf
       -0.04918770877366547 -0.13652136791849048
0002a0 88 73 0a 52 3a bb b0 bf 5d 05 db 83 45 ba c5 bf
       -0.06535686972570265 -0.16974705637225443
0002b0 58 72 a4 28 c9 9e aa bf 5a 71 8d b2 9c 20 b0 bf
       -0.05199268933413198 -0.06299762114708099
0002c0 5f d3 24 83 26 01 b4 bf 2b 8e da 12 fa a3 97 bf
       -0.07814255429987103 -0.023086459542026965
0002d0 dc 40 75 56 bf 95 a8 bf 7f 8b 09 ab 0c eb 86 3f
       -0.04801748209377063 0.011190508813518239
0002e0 0b ff d4 05 8d 51 b1 bf b7 6e b4 18 ee 3c ba bf
       -0.06765061752684802 -0.10249221900124438
0002f0 db 2c d2 e9 d7 35 bb bf d7 36 18 d0 6b bf be bf
       -0.10629033525963243 -0.12010835485872505
000300 c6 da 83 64 9e cd b5 bf fa 26 21 1c 85 d4 34 3f
       -0.08516874269467242 0.0003178429580016209
000310 f6 3f 1b 8c f6 2e 96 bf b3 44 8d b4 8c 52 9e bf
       -0.021663524915140862 -0.02961177684784806
