projects/example/model/model.pt (torch, 438417 bytes, 16 tensors)

en1.weight f8 [200, 8]
0.3036884724116797 0.05525385213040768 -0.0014512902111921244 -0.23643204828380165 -0.5279550446202742 0.25292011066797715 -0.2649829502485323 -0.222433589596705
-0.3749465331242256 -0.5604901871065553 -0.3934334941483401 -0.5886008064394713 -0.527620047933384 -0.4661025060774798 -0.24060009300185795 -0.33066445886397133
-0.13183972637720492 -0.17552872697208916 0.14791195368051915 -0.013236025635514103 0.16661881452611196 0.30076071148312294 -0.00912419235550733 0.03440356348079671
-0.1619899100605673 0.05370461669800719 -0.35731428729236986 0.18933433822023119 0.09162976110606692 0.1304429668209315 -0.19453600527926823 -0.08745159981791824
0.19701518029454834 -0.01296396846460418 -0.0640908509207912 -0.26434838580406644 0.029914149489685307 -0.005440716727947485 -0.057147806989991085 -0.11948163473347445
-0.1748593667148647 -0.06442228615617997 0.0012229416074404677 -0.163748147771279 0.13148833068598909 -0.5623283307794178 -0.2791754698406628 -0.21139309677316376
0.26304503240441407 -0.08399368810858253 -0.008336930797405342 -0.15430083472602274 -0.5537982160160976 0.22844342975790033 0.06924310691983779 -0.2320646139400167
0.2547441399445957 -0.1500573388577935 -0.0044024833641783875 -0.003628808123860561 -0.25108979623393646 -0.39750543854585785 0.3646677505751952 -0.39944604781258813
-0.06512198369149581 0.01806690517100941 -0.1677036639446434 -0.24532725615040965 -0.40599919227723613 0.2115227148602965 -0.17185031050324306 -0.4530140556662467
0.26764263613060973 -0.12881587796165622 0.1918369200446119 -0.20467420582006557 0.166349083714395 -0.24900776747893796 -0.0796934531196834 0.05576166817593071
-0.5275165225049048 -0.5597481247368878 -0.6347511336165366 0.004835246674430447 0.09619194605107534 -0.25451775065011734 0.2152296736490395 -0.3874345598461713
-0.2334566055280043 -0.6172031948686006 -0.656941807074899 -0.03467855938945271 -0.5301335757248213 -0.6821369440760865 0.19918694262027462 -0.6208717983473471
-0.11151629911317822 -0.3363515762961329 -0.3608679203025766 -0.08853024277197184 -0.1987058029708472 0.2926049129835333 -0.0439229010636135 -0.21607028704721915
-0.21338758151189025 0.043103569590375305 -0.5346634689072343 -0.44032439882422825 -0.34769473629521946 -0.6054436871744975 -0.20864082089904348 -0.5207379694704546
-0.30717518590234927 -0.2128837561316378 0.00506231030289711 0.1634281088313455 -0.19153514868274385 -0.34231487548509765 0.11788239346304244 -0.3312053717071594
0.04815139091605638 -0.3627703047106667 0.07587285484059746 0.02118631005015029 -0.30280123663932135 0.20774976467871817 0.2401732765153715 0.12808504960228198
-0.3135763312356657 0.0956103420873141 -0.04052845661769904 -0.3037601742073437 -0.13249975849516457 -0.6278354263348362 0.16483210723456293 -0.2732600242741624
-0.1808065382035837 -0.06518898159962795 0.0750478040776285 -0.1529272204962348 -0.4067910354315936 0.06335831086100807 0.07222128594704953 -0.27072683765841343
-0.01312465238236057 -0.14666324153236476 -0.10579639733099838 0.0023912443789929727 -0.4717768264951723 0.15712371424617644 -0.23006380982116031 -0.010729305130709361
-0.0035987212243435347 -0.04856879091146729 0.10385066426806508 0.2692508630228496 -0.04653394820423828 -0.3389815867136409 0.20305262282218114 -0.23132857547248498
0.0959339532218438 0.14630852120911322 -0.03353724215453296 -0.1337712329740497 -0.0057454418936560715 0.17038271772044414 0.21629564581451707 0.14525295043471026
0.10960018253242505 -0.5468824216132182 -0.6118748855070004 0.10403935755544116 -0.3406435626807334 -0.4506149126074535 -0.08683573956549405 -0.5533262880978266
0.1381304270336753 0.3427580988608507 0.015395014623668038 -0.13151933823718318 -0.0704778765423371 0.15308050805512788 -0.0815028436922362 0.01798928296049122
-0.32696111767815195 -0.48479920811118693 -0.5905608999936852 0.035950577213016754 -0.0019274445650316991 -0.6541729963884864 0.0511430120246841 -0.4193867316520418
0.0008774495153834065 -0.34619167885201496 -0.09534166392127524 -0.273492567222974 0.21383618168204085 -0.3537800128424878 -0.2550584482753261 -0.04585806773927807
-0.20093827553450266 -0.1696588131662331 -0.00358013965141573 0.08733367159859101 0.6096539964896341 -0.17308781159437345 -0.06715118888151557 0.3392520805378372
-0.3916915962722457 -0.16221461011067076 0.011482929527386408 -0.22258964636875428 -0.09113389718386006 -0.2868902075951971 0.17391967622036286 0.17574506000135345
0.13028996512758592 -0.28183925841968466 0.04432573060409532 -0.05644270406564286 -0.0464046098624834 0.08707783247246222 0.02202585424192948 0.17295905069459333
-0.2936918609346627 -0.5785300181050399 -0.059830929704791896 -0.0802381956109273 -0.18499063621624398 -0.6438062762917875 -0.28140195543983204 -0.10027627690772586
-0.2333722316157762 -0.39119502779013016 -0.33129074852979706 -0.5474974726934543 -0.6136114502327895 -0.15028176159512052 -0.08415998375405052 -0.09453269306495814
-0.01744601574602488 -0.3115361041212935 0.05459545719110832 0.048568170570299746 0.08317354334435678 0.07130283783969103 0.1764947954554357 -0.1782769203464103
-0.09974191198863144 -0.43391506133131236 -0.012619430605932626 0.17420766821837064 -0.017330133518565997 -0.20872538425696957 -0.03088541734300099 -0.13563837058498274
00000000: 0f8b 4bc6 a16f d33f 1099 c19f 3b4a ac3f
00000010: 33ed 9eff 26c7 57bf e277 8dc5 6743 cebf
00000020: a1df 4cfa 01e5 e0bf 5a75 f4d4 d72f d03f
00000030: a329 540c 7bf5 d0bf 14c4 6c30 b478 ccbf
00000040: a718 61be 1fff d7bf 1c40 eb1d 89ef e1bf
00000050: 0329 a1ad 032e d9bf f1d0 c15b d1d5 e2bf
00000060: 8fcf 5270 43e2 e0bf 41ee 0b9b 9fd4 ddbf
00000070: d1c3 6ddd fbcb cebf 804c 3143 9b29 d5bf
00000080: 8245 8dc8 1fe0 c0bf f243 edae b977 c6bf
00000090: e165 df65 c7ee c23f d34f de49 7d1b 8bbf
000000a0: 3ddb a4eb c353 c53f 1778 efda a93f d33f
000000b0: c58f 275e b4af 82bf a921 0808 589d a13f
000000c0: b8fd feda 15bc c4bf 906c b9e8 2b7f ab3f
000000d0: 1d1d 94be 3cde d6bf 8535 558b 1b3c c83f
000000e0: 2975 4a4b 0c75 b73f 499b 3eea 5ab2 c03f
000000f0: 0ad3 484a 8ee6 c8bf 256a 3361 3a63 b6bf
00000100: d81e 171e cb37 c93f 20a1 a764 da8c 8abf
00000110: d477 ad0c 4268 b0bf c7d8 f17d 15eb d0bf
00000120: 04c1 fb96 d0a1 9e3f b804 9d46 0149 76bf
00000130: 9cc9 1e34 7a42 adbf d423 a731 5996 bebf
00000140: 4d45 b8ae ca61 c6bf f9a1 2c9c fa7d b0bf
00000150: 1033 5e8d 6309 543f e8a6 ba05 b3f5 c4bf
00000160: e80c 0d10 9cd4 c03f d6fa c9fb 97fe e1bf
00000170: c1e8 33ca 02de d1bf dcd5 9ed2 ed0e cbbf
00000180: 8d57 e3d4 bad5 d03f 5f2d 7f3f 9c80 b5bf
00000190: 28b0 fde8 f312 81bf 0467 7237 21c0 c3bf
000001a0: bde9 4b09 b7b8 e1bf b0eb e561 a23d cd3f
000001b0: ceb2 b18f eab9 b13f ca32 b713 4bb4 cdbf
000001c0: 4b38 7a5d ba4d d03f 38a2 7531 1435 c3bf
000001d0: 9812 20a1 5608 72bf e7e2 e486 29ba 6dbf
000001e0: a8c7 cbef da11 d0bf 9c57 a2a6 ba70 d9bf
000001f0: 1816 a867 b756 d73f f5c6 f727 8690 d9bf
00000200: 81a3 3496 d5ab b0bf 04ce 657b 2180 923f
00000210: 17e3 074c 5077 c5bf d9e0 fd2e e266 cfbf
00000220: 0c1f 4209 e4fb d9bf 58d2 5723 2d13 cb3f
00000230: ac9d b5e3 30ff c5bf 27c0 6daa 2efe dcbf
00000240: 7d8e 4c94 0e21 d13f f281 86e7 097d c0bf
00000250: 8ee4 e0b8 1c8e c83f 7c7d 2aae c332 cabf
00000260: 26ee 2241 ed4a c53f 41d1 e28c 7cdf cfbf
00000270: a4b6 da46 ca66 b4bf d93e 5f1a cb8c ac3f
00000280: 4a43 8854 6ae1 e0bf 9cc0 37e6 74e9 e1bf
00000290: 246c ff9b e14f e4bf 6439 5ba5 1fce 733f
000002a0: 1c8f 6d0e 09a0 b83f 95cc d2d1 044a d0bf
000002b0: bec6 b95c a58c cb3f 1549 f852 bacb d8bf
000002c0: e893 e3f2 e7e1 cdbf bb50 1eea 20c0 e3bf
000002d0: ef60 18d3 aa05 e5bf 9b72 e65c 63c1 a1bf
000002e0: 1cfd 47b0 daf6 e0bf d067 46db 10d4 e5bf
000002f0: 4912 2c2e f57e c93f 5423 9d88 2ede e3bf
00000300: 637c a909 558c bcbf 9c98 09c3 c886 d5bf
00000310: a701 f8c2 7518 d7bf 7f9d 6901 eba9 b6bf
00000320: b581 a416 316f c9bf e471 faf4 09ba d23f
00000330: 1d32 3aff 0f7d a6bf 62a8 40f0 30a8 cbbf
00000340: 42a9 fbc5 4850 cbbf 0f8a 76cb ab11 a63f
00000350: ca51 2a90 f61b e1bf d02d 2563 462e dcbf
00000360: a546 586c a140 d6bf ec7d 7f70 cb5f e3bf
00000370: 359d 2f0f beb4 cabf 5027 95ac e2a9 e0bf
00000380: ccf8 651c c2a8 d3bf dcae 3761 c63f cbbf
00000390: 3f21 1793 37bc 743f c4c0 5657 36eb c43f
000003a0: ae3d d047 3984 c8bf be23 c9a6 7ce8 d5bf
000003b0: 42ae b260 8a2d be3f 3779 ef03 7832 d5bf
000003c0: 5395 7b92 4ca7 a83f 1f4e acf0 a037 d7bf
000003d0: 27cc 3146 676c b33f 293b 2733 ddb1 953f
000003e0: b478 2370 1861 d3bf 3bfd 8556 8b97 ca3f
000003f0: 11db 0078 ffbd ce3f c5fc 9245 1765 c03f
00000400: fd3c dd75 a211 d4bf 97a4 6c5c eb79 b83f
00000410: 57f3 7557 25c0 a4bf 380f 8383 ce70 d3bf
00000420: ff78 bb88 c0f5 c0bf 5a1b ec51 3a17 e4bf
00000430: 7a9c f3ee 3719 c53f caf2 e39c 177d d1bf
00000440: 0762 3e2c ab24 c7bf a9aa 07a0 39b0 b0bf
00000450: 5b68 2638 5536 b33f 8689 5981 1e93 c3bf
00000460: dd04 5f44 dd08 dabf c0ec 1311 4038 b03f
00000470: 65b7 371d 187d b23f de1c 79a8 9653 d1bf
00000480: 2e63 0706 19e1 8abf d813 f470 dcc5 c2bf
00000490: 143e 9202 7915 bbbf 17d1 f18c cd96 633f
000004a0: f4ac 336e 9731 debf 2483 0e3f a11c c43f
000004b0: f267 961d bb72 cdbf 845f 29f5 3ef9 85bf
000004c0: ad47 e9be 107b 6dbf f45b 2431 02de a8bf
000004d0: c6ff b206 f595 ba3f 2896 c6f8 673b d13f
000004e0: afc5 6133 4cd3 a7bf d366 38d3 dfb1 d5bf
000004f0: 87b3 31db a0fd c93f 786d 24bd 2c9c cdbf
00000500: a5ef a9a7 208f b83f d510 dcd4 3cba c23f
00000510: 97e5 801c cb2b a1bf 3073 626f 6a1f c1bf
00000520: 5294 8c50 8888 77bf 25da 34d4 19cf c53f
00000530: bf30 8562 93af cb3f 12de e10f a697 c23f
00000540: fdc5 9cef c10e bc3f f8c0 7290 0f80 e1bf
00000550: c8e1 cfa3 7a94 e3bf 6a8d 32c6 52a2 ba3f
00000560: 95a0 53a8 1acd d5bf 514a 2fee dfd6 dcbf
00000570: 07ca 8ef5 dd3a b6bf 2fb6 ec54 d9b4 e1bf
00000580: 5d98 5801 42ae c13f abf9 42aa bfef d53f
00000590: 5b09 a4e2 6b87 8f3f 0398 422c a0d5 c0bf
000005a0: d342 d78e d60a b2bf 413c e05f 2498 c33f
000005b0: 6c6c 30d0 5edd b4bf aba6 f957 c86b 923f
000005c0: f870 df52 eeec d4bf 34b6 fd41 f306 dfbf
000005d0: 539d f8f8 dfe5 e2bf 10f1 cd32 1d68 a23f
000005e0: 3158 c9d7 4994 5fbf a846 2d35 fcee e4bf
000005f0: 8341 21b8 6a2f aa3f 2799 3472 3bd7 dabf
00000600: 0ea9 797c 94c0 4c3f 7445 b424 0128 d6bf
00000610: 24f4 7cb0 4f68 b8bf 08fe faf7 e680 d1bf
00000620: 0750 83e7 fb5e cb3f b5c3 48ec 54a4 d6bf
00000630: 5e4e 7aab e052 d0bf f659 656a b57a a7bf
00000640: c2b8 f76c 58b8 c9bf 8079 0347 61b7 c5bf
00000650: 7064 f9d6 1854 6dbf 7c05 5bdf 7f5b b63f
00000660: c48e 1919 4982 e33f 5728 11cd bd27 c6bf
00000670: 7535 2200 d230 b1bf 54a3 c05b 4eb6 d53f
00000680: 82de 06a1 7911 d9bf 99ea adc6 72c3 c4bf
00000690: 8c59 42b6 5c84 873f 227f ca49 d17d ccbf
000006a0: 5432 f613 8d54 b7bf 587f cabe 685c d2bf
000006b0: bca9 bffc ff42 c63f e7d6 916a d07e c63f
000006c0: b727 9c71 57ad c03f 530d 6987 a709 d2bf
000006d0: 16bd a1b6 dcb1 a63f 8c96 1ee0 0ee6 acbf
000006e0: 2f6b 7c53 58c2 a7bf b500 ad9a bb4a b63f
000006f0: 9ecd 8a0e f28d 963f eae6 23ad 8523 c63f
00000700: 5a35 74f2 d8cb d2bf 707e 7062 5183 e2bf
00000710: 6422 bedc 28a2 aebf d2fa 098a 7d8a b4bf
00000720: 5bb8 4eee c5ad c7bf a23f b49e 0f9a e4bf
00000730: f23f e958 7d02 d2bf 6e21 e2c1 b4ab b9bf
00000740: 36ca 4a2b 24df cdbf d4d9 adde 5609 d9bf
00000750: 1bc8 991c de33 d5bf a28d 7b6b 1985 e1bf
00000760: 496e e67a b4a2 e3bf 743f 9ec9 6e3c c3bf
00000770: 8f04 db39 828b b5bf afe6 1d69 4b33 b8bf
00000780: 5d78 4c4c 5edd 91bf 6659 ae20 35f0 d3bf
00000790: a9bd 4a8e eff3 ab3f 94b4 7360 eddd a83f
000007a0: 9073 8e80 dc4a b53f b72a a21c e740 b23f
000007b0: 6199 32a7 6197 c63f a87c 4233 c7d1 c6bf
000007c0: 561c 089a af88 b9bf 813a 6aad 43c5 dbbf
000007d0: 0115 f94d 37d8 89bf c8eb dad6 6f4c c63f
000007e0: b14b ca92 fdbe 91bf 9e46 9d6d 83b7 cabf
000007f0: 6160 a545 6da0 9fbf ac63 df1e 995c c1bf

en1.bias f8 [200]
-0.041883839387030136 -0.3424886300197931 -0.01571140870236575 0.06182198904529784 -0.012495025464170523 0.04336608382572351 0.03296621704873988 0.06309491689828524
-0.012340434958022232 -0.18152571720473895 -0.47049247464779237 -0.4332813490850382 0.12634291549737356 -0.5003070536144905 0.08017890843655655 0.09019835734773003
-0.02432720464922764 -0.03319457959271962 0.06497355408014116 -0.09108755963414389 -0.07430293591072332 -0.5542953600840916 -0.2076524876736806 -0.5836212464287579
0.049423677141305855 0.08320842114160712 0.04188192331665259 0.16303770061026776 -0.5689258110807196 -0.32688350565363034 0.054317995877689956 0.14883649336978166
0.07572324749935687 -0.28073273499149975 0.03237373459228761 -0.3581893145366461 -0.5211529568829197 -0.0010332168440392881 -0.1787387674094987 0.012242743107518606
0.054380585643553477 -0.15875322835966707 0.11365520001482028 0.005307569675406547 0.06568970576520211 -0.27420328566329744 -0.1460120332762982 -0.009771913303738935
-0.5432712031985153 -0.4495433051571152 0.1447654554463536 -0.5613076193941342 0.10683109886074282 -0.5577738559982219 -0.0476898173038833 -0.5330520289053867
0.09045695885645025 -0.5401667601348987 0.09493919578923789 -0.48208428542988047 0.014182391514885843 -0.1070747837794363 -0.27035037867510464 -0.15646797563622059
0.030602761633816526 -0.34271600755272924 -0.29716050974281766 0.01176755546201191 0.021996596521879453 0.009776493619602733 -0.021788632703107224 0.06984751917514512
-0.08842989380132817 -0.0018299082695312449 -0.4131011593199044 0.12243551094728396 0.01800797795243291 -0.02034195055716377 -0.026446440768536566 0.03847344819523815
-0.09779391136949961 -0.46141934300461906 -0.12022501934582255 -0.6005842914348691 0.020444012521815134 -0.023370506891119018 -0.03129370040365387 -0.5413961423138937
-0.36520804658085837 0.21305312305955748 0.07908648488957933 0.06819653970296163 -0.14617993976628396 0.09578479128619273 0.13661546368215519 -0.3540544546261884
-0.36782977111286363 -0.27217353617815 0.2361672601560696 -0.5279364752973558 -0.1394577714069673 0.11949910018123147 0.001086024413408656 0.004173940465196948
-0.18546320050939305 -0.01823782467103033 0.057107561934064535 -0.1814020646778378 -0.0714888869997313 -0.033687280096080775 -0.09541814549902929 -0.5415096477283096
0.10399566160170634 -0.3376522005512592 -0.421945537876892 0.04245523148684737 -0.1295214293361286 -0.11055607493832044 -0.14584731609476986 0.02850714161484461
0.042168564136292365 -0.025141826722203248 -0.059428085366488075 -0.07272432227906475 -0.14281365836145982 -0.5084570438931034 -0.20322427735875748 0.13219849830310282
-0.11155970092698929 0.06681615058237554 0.04430906791505914 -0.5658795979065296 -0.6161108479310425 0.10055681818614662 -0.49236942112725507 -0.5702618022057117
-0.5110137128624286 -0.5700222273098624 -0.5523077321255915 -0.06495783712295365 0.044484735889416635 -0.024134389267404775 -0.3637330859308 0.12360299329686525
-0.43590409339598846 0.08439953151931331 -0.4974761158672559 -0.05592668732486639 -0.11783659613410076 -0.19988002046161646 -0.4974439196216252 -0.3280737675810585
0.11817951050070183 0.018960214319500356 -0.02830712083761503 -0.2532149115172906 -0.3118646514419085 0.1791353442878585 0.11752207944884518 0.14584693545826882
0.04250589626450582 0.0003661588980524294 0.2260455713876012 0.07098390732647762 0.2540948704635182 -0.20027706139302662 0.20668890596422823 -0.003012647033717014
-0.26197487353644594 0.03146314266413198 0.124100590634935 -0.0015259144417291291 0.15320757353337433 -0.42002809749360087 -0.29903189772081523 0.04503576209752281
-0.029756018450558374 0.1321227204070903 -0.014278055656088006 0.11703297493918521 -0.4236836738525583 -0.5141961321786491 -0.4651349749765251 0.0555297071389927
-0.5700320385341177 -0.37554804739722425 -0.1786976879769602 -0.016285369277406 0.0950775290778591 -0.09846403689825887 -0.24558089523104742 -0.5872590421081932
0.026157146614822338 0.02461771746622594 0.06636707162358618 0.03569804059252316 0.11127374520995313 0.08757332052986336 0.02437839846876613 0.16740434534844154
00000000: 54e2 cb70 cc71 a5bf 70f5 4b6e 55eb d5bf
00000010: fdf7 33ca a616 90bf 4817 3fba 21a7 af3f
00000020: 9db3 d9ed fd96 89bf c3fb 924f 1434 a63f
00000030: fac0 31b0 f2e0 a03f 9d39 9f0c fd26 b03f
00000040: 6245 8124 f145 89bf 837e 6315 3c3c c7bf
00000050: 9116 e877 8c1c debf 2f5e 12b2 e1ba dbbf
00000060: cd3d 1231 012c c03f 746f 27f0 8302 e0bf
00000070: 9361 90dd 9a86 b43f bd1f f652 3d17 b73f
00000080: d972 7c11 3be9 98bf 8ba9 8243 e1fe a0bf
00000090: 480c e159 1ba2 b03f 247b b3a9 8351 b7bf
000000a0: 36bc bb67 8405 b3bf cc57 7c9f c9bc e1bf
000000b0: 84e9 be51 5b94 cabf 5531 d576 06ad e2bf
000000c0: 18a0 f069 0f4e a93f 5214 8ea7 254d b53f
000000d0: 8990 e025 8c71 a53f 036d 115c 6bde c43f
000000e0: 9424 0ee7 a334 e2bf 4c96 98cb a8eb d4bf
000000f0: 9404 c27f 91cf ab3f 80bd bcff 120d c33f
00000100: b780 8e47 9962 b33f ca20 ed6e 86f7 d1bf
00000110: 3a82 a546 4a93 a03f 138a eddf 92ec d6bf
00000120: abd3 40f7 48ad e0bf 0841 8223 a0ed 50bf
00000130: 018c 4674 e9e0 c6bf c0ba 142a b912 893f
00000140: 19b6 c0a9 c5d7 ab3f 5f37 f899 0652 c4bf
00000150: 7d80 15d7 8118 bd3f df73 d5e2 63bd 753f
00000160: 1c06 f261 0ad1 b03f 804b 18f0 8b8c d1bf
00000170: c840 dfb5 85b0 c2bf bba3 7800 4c03 84bf
00000180: 0514 534a 7a62 e1bf 9546 7248 51c5 dcbf
00000190: f2c6 5da8 ac87 c23f b663 8965 3bf6 e1bf
000001a0: 6079 cd6b 4859 bb3f 0a70 c28e 48d9 e1bf
000001b0: fc43 58bb cc6a a8bf f5e1 e620 c30e e1bf
000001c0: 1aec fbef 2f28 b73f 244d 25cd 0b49 e1bf
000001d0: 25f8 0565 ef4d b83f 368f f50b 78da debf
000001e0: 2f4f e25d a80b 8d3f 5c17 8fc6 4069 bbbf
000001f0: 07bb b7ac 6b4d d1bf 574c 1d83 2407 c4bf
00000200: 0ec1 8991 5456 9f3f 5e4c 101f 0fef d5bf
00000210: 9184 c083 ad04 d3bf 3ed9 e78e 9619 883f
00000220: dd36 bd9a 4686 963f 730c edc2 b205 843f
00000230: 93a0 8963 c24f 96bf 1261 90ea 86e1 b13f
00000240: a18e dd6d 57a3 b6bf 6a3c 070b 31fb 5dbf
00000250: c5fe 4dd8 3f70 dabf 053c 6303 ef57 bf3f
00000260: 3ebc 7df1 ae70 923f f4fb 8431 85d4 94bf
00000270: 4b2e c998 c614 9bbf 949a 86b3 cab2 a33f
00000280: dc75 1493 0509 b9bf d695 fcfe e487 ddbf
00000290: 9253 401e 11c7 bebf f487 468c fc37 e3bf
000002a0: 1989 b874 46ef 943f ce37 272b 70ee 97bf
000002b0: 70e9 9b57 ba05 a0bf 4766 ad00 1e53 e1bf
000002c0: d240 1392 915f d7bf bcfc ec21 5345 cb3f
000002d0: fd05 280a 033f b43f 747e b913 5475 b13f
000002e0: f04f 5036 06b6 c2bf 2544 0722 5a85 b83f
000002f0: 0d45 5292 9d7c c13f 99d8 e703 d4a8 d6bf
00000300: ce31 5be1 858a d7bf 6a32 2e8d 4a6b d1bf
00000310: 90cc 6091 ba3a ce3f a190 f808 dbe4 e0bf
00000320: 0ed8 ae93 c0d9 c1bf 7a08 2e37 7e97 be3f
00000330: f0d9 a5d5 1dcb 513f 9c0f b29c b118 713f
00000340: 9150 6616 42bd c7bf 298d 0cb2 efac 92bf
00000350: 52e2 b8cd 333d ad3f a7ed 9bcf 2e38 c7bf
00000360: 16f8 b07f 184d b2bf 5d93 9b8c 753f a1bf
00000370: 4101 5dd6 526d b8bf 2fc5 6e0a 0c54 e1bf
00000380: 8e55 81ad 759f ba3f dc90 b2f9 179c d5bf
00000390: d9f5 77db 2701 dbbf bf6b 8f2d b1bc a53f
000003a0: d69e 907f 2894 c0bf 49f5 3b26 674d bcbf
000003b0: 840f 6bf6 1fab c2bf 09b7 c0e3 f930 9d3f
000003c0: 65f1 c437 1e97 a53f 085e 226e c7be 99bf
000003d0: 37d6 39a6 5b6d aebf fef5 cfa9 0f9e b2bf
000003e0: bed3 0acc b747 c2bf 8922 deb4 4745 e0bf
000003f0: 142a 81cc 4003 cabf c864 6561 e1eb c03f
00000400: 0f70 0833 2d8f bcbf d78d 98fd dc1a b13f
00000410: 4b0c 399b adaf a63f fa6d cf87 af1b e2bf
00000420: 9763 d218 2eb7 e3bf 4ad3 7f75 17be b93f
00000430: 53b0 5208 fb82 dfbf ad35 d4ad 953f e2bf
00000440: 3ea7 116e 395a e0bf f93e 0941 9f3d e2bf
00000450: c3d5 d943 81ac e1bf f7dd 0faa 13a1 b0bf
00000460: 76ea a10b b4c6 a63f a922 7372 afb6 98bf
00000470: bef0 2223 6747 d7bf 84d2 e51d 72a4 bf3f
00000480: de02 5548 dae5 dbbf fe54 ac2b 359b b53f
00000490: dd38 0c10 a6d6 dfbf d15d 113a 6ca2 acbf
000004a0: fdfc aa06 8a2a bebf 78d3 8023 ab95 c9bf
000004b0: 999c 9705 1fd6 dfbf e7e9 9b1d 29ff d4bf
000004c0: c665 a82c 0341 be3f a3a9 b571 4e6a 933f
000004d0: aa45 f7b8 8afc 9cbf 0ce2 f450 ac34 d0bf
000004e0: 032c ae27 97f5 d3bf 2814 a32e e8ed c63f
000004f0: 906b ca4f ed15 be3f 62ee 01c5 1cab c23f
00000500: acba af34 55c3 a53f 00b5 057e 20ff 373f
00000510: fdf7 41b0 0fef cc3f a76f 8258 002c b23f
00000520: fc37 ae21 1743 d03f 6538 69c2 ada2 c9bf
00000530: 0efc c735 c874 ca3f 8c9d 7e8f faad 68bf
00000540: 0b9e 8d42 32c4 d0bf 312d 8be1 ef1b a03f
00000550: fcfa 306a 0ec5 bf3f 420a eb27 2600 59bf
00000560: 54a5 e946 4e9c c33f 1db6 8887 bde1 dabf
00000570: 6ffd 4aaf 5623 d3bf c1f5 b76a ed0e a73f
00000580: 13d3 6a98 5c78 9ebf 217f 9ab5 65e9 c03f
00000590: 9336 bf30 d03d 8dbf f2d9 ea7f dff5 bd3f
000005a0: 81ef c220 a21d dbbf d5fb 6d72 4b74 e0bf
000005b0: 3eff 6f7c c5c4 ddbf 09a3 3cc8 636e ac3f
000005c0: d1a3 65d4 b33d e2bf 8274 69ad fa08 d8bf
000005d0: 79ad ddda 90df c6bf 2589 cca1 1cad 90bf
000005e0: 1c51 f93d 0057 b83f 9766 4f6a f034 b9bf
000005f0: 9016 c5dc 316f cfbf bb51 8479 d3ca e2bf
00000600: 54c1 1165 f0c8 9a3f d3ad ad0d 6335 993f
00000610: 5c93 27b2 6efd b03f 0599 c079 0347 a23f
00000620: 0787 94a8 6f7c bc3f 1a8a ad83 346b b63f
00000630: 27dc 9ba0 a6f6 983f 996b 3d6e 816d c53f

en2.weight f8 [100, 200]
-0.009320335062466293 -0.1494569814678325 0.11893074082144263 0.053972828434255375 -0.02542100261717883 -0.08931104953756004 0.009571372311405663 -0.22703920883485645
-0.01995240367758224 -0.03096238137968987 -0.03332276939883168 -0.16571975808572192 0.04607391440264576 -0.19076934983637195 -0.10697915631848134 -0.025734854561351255
-0.05734245843006346 -0.05649795315604452 -0.0296740497273096 -0.06720932081949067 -0.14291416842646376 -0.10594673578107248 -0.035580228250310306 -0.06929044454132424
0.01865177831903753 -0.06843731261970885 0.04221077257030732 0.0944546038389183 -0.1043913568774172 -0.18259479647070587 0.09473131732080141 -0.1025293403642916
0.00025524483217557943 0.010559636276080236 -0.0425376850191976 -0.04870559059412989 -0.1862591201457863 0.02263694488031437 -0.1236243944084093 -0.03641460115638445
-0.11034479288496624 -0.01155528825531195 0.047213977092400314 -0.026677988058655806 0.018515987125308112 0.005362800240571781 0.03358523981153536 -0.06732121290173915
-0.09143724985423274 -0.1205343063138648 0.051562526010801656 -0.05580274065665555 0.06282212887174181 -0.1614726615016505 -0.04475105946167469 -0.10537324277397148
-0.021451091407636548 -0.04352205318832686 0.024870834637031585 -0.08606576669865931 0.04226076564521172 -0.08922249076588498 -0.1561099893563292 -0.03348443825254513
0.016949300432117752 -0.170922797653521 0.03181082053067432 0.0561482048843997 -0.046445177981713145 -0.08877621935893364 -0.01940276558103494 -0.044886823881216016
-0.018935780029663198 0.08503090129070522 -0.07906548861772897 0.03780349773920006 0.04200996366548443 -0.05579404215538281 0.07865856515357011 -0.11406784262454979
0.011842813177208273 -0.04756941233558844 0.032532407448416456 -0.08645059618093698 -0.06434362929812427 -0.013773727794335918 -0.014362637609104542 -0.13540392406491134
-0.02429648916433925 -0.017228156025015717 0.026440451062667594 0.021570368105298367 -0.05651964842224643 0.009367853962502623 0.016734398629451353 -0.19729399968539427
-0.04759948895488524 -0.04204901136377929 -0.05004713057237892 -0.14780589831510058 -0.09984619571052596 -0.00021103168022889858 -0.056964250606782396 0.012148818147818125
-0.02073391771339614 -0.06597418978029128 0.014282967959126884 0.046565748441946136 0.01081230149795424 -0.045549636234632554 -0.0613973192013626 -0.0593718228212673
-0.055514844723347875 -0.1324153065742084 -0.059669721570145676 -0.013021626264993185 0.027591143625526688 -0.038798163294578226 0.025369957950792697 -0.06125209936875716
-0.2697724122179743 -0.027951815617071166 -0.0038551455254215955 -0.0055798783184528924 0.05107816869209904 -0.09568908835921217 0.011046750426002613 0.016127437378099983
-0.11957086850631907 0.06687724026328429 -0.056519961986030424 -0.16835492508567015 -0.10489618875624519 -0.0327596051958605 -0.07799577713083866 -0.0899355084904549
-0.08637832362701044 -0.09348813622208531 -0.07205444451960646 0.025087575481186578 -0.0025953386054278125 0.03919713100076272 -0.16232807740722482 -0.039326557444025446
-0.11757836008377345 -0.021695050260285335 -0.18109776532869076 0.03957131793737495 -0.219162037516713 0.0004889754496661235 -0.05489008919399602 -0.03917742489783395
-0.025063236075303853 0.060366065142622896 0.029994366447739652 -0.0870402599471505 0.03737255581281594 0.23545551038418372 0.04532458034384028 -0.019997345166493496
0.00506198672853256 -0.08697453403886943 0.014270490316788155 0.0567338905094459 -0.01198641844229817 0.003600483484748483 0.0045779411182729265 -0.04645579341693602
0.09650237393252682 -0.009428391862176243 -0.07848971432690283 0.04113503525715351 -0.047396688583907026 -0.17024151141443775 0.056055618689000254 0.05765627183119732
0.047020701517014166 0.0010868468214726404 0.00036375553619454883 -0.0744760127947975 -0.1485207081981692 -0.12367811000837577 -0.06216675478444313 0.07836901227769737
-0.09443563520081728 -0.17366699263225777 -0.01029656470864045 0.03824743830585988 -0.11291089413170494 -0.12157676518050409 0.06533582150451597 -0.13820337787085613
0.003090750164711265 -0.04720660547689425 0.05296729667124538 -0.0666555911119669 -0.07640760832237263 -0.002625030830271964 -0.05091749754837929 -0.043785371999075555
-0.08742418295940119 -0.04107682216071985 -0.046701946659140244 -0.031009518836985914 -0.11096578256687539 0.05110992099930289 -0.1346525031490433 -0.1286488966305052
0.01571896685081622 0.11756032217992365 -0.03218880953481054 -0.1234731947046877 0.029288636311814685 -0.09330391304434214 0.005792319117043971 -0.0961829864194588
0.029271343448848738 0.07417397763104669 -0.09227510788613383 -0.006922315107897262 -0.09755515598092866 -0.11876680319092317 -0.06093745961416526 -0.13433179557045363
0.09607467315347659 0.053683670273085536 -0.004992188559254998 0.08908011786339753 -0.01920003027672377 -0.03925532107441915 0.05926959391673398 0.010675558003981397
0.02570912371636616 -0.01649984659280849 0.04446783686032542 -0.053603570750760575 -0.13786862836530117 -0.05937767414877604 0.09288448677719713 -0.22646457560107955
-0.06719574144465194 -0.11850825535700679 0.04411166792313625 -0.02924239925855661 0.061181839425467975 -0.009075602840709894 -0.022367379420251802 0.1006483365056576
-0.11858130380524937 -0.0949116480631601 0.011451284998344682 -0.1266602720270683 0.0003445532536110669 -0.056086682709622526 -0.0019195285100988134 -0.13578018725412913
00000000: af99 3f32 8a16 83bf 8d17 c807 6821 c3bf
00000010: a130 51ba 3e72 be3f 87d8 fe99 53a2 ab3f
00000020: bf3f 7d9b f607 9abf f56c efc4 16dd b6bf
00000030: 6a4f 71d8 279a 833f 7e7e 6dec 9e0f cdbf
00000040: 4654 1625 676e 94bf 9f6a ba3d 9ab4 9fbf
00000050: 6a6d 8f99 ae0f a1bf 10bd a316 4e36 c5bf
00000060: f2ba 1d07 0097 a73f e42d 504b 216b c8bf
00000070: 2ad6 bd69 fc62 bbbf db51 d5da 3c5a 9abf
00000080: bf3b 429f fd5b adbf bb3a 31ba 4ced acbf
00000090: 4585 79c4 df62 9ebf 25f5 e74a a134 b1bf
000000a0: d46a c3ef 024b c2bf 6733 4c45 531f bbbf
000000b0: d647 7059 9237 a2bf 3ef4 3ac1 04bd b1bf
000000c0: a1ed 91a7 7319 933f 6f1c 8793 1b85 b1bf
000000d0: 1aec 747f a69c a53f c4dd 714a 2d2e b83f
000000e0: c908 c657 64b9 babf 7477 a12b 445f c7bf
000000f0: 57c2 ccc5 4f40 b83f e6bd bee3 5c3f babf
00000100: f322 e834 4cba 303f 7615 b563 4aa0 853f
00000110: bb8f 02dc 7fc7 a5bf eae2 776d f0ef a8bf
00000120: 3dcf cdbe 56d7 c7bf 90eb c4a7 232e 973f
00000130: f6cf f82a d9a5 bfbf 488a 2042 efa4 a2bf
00000140: 088e b96c 8e3f bcbf c926 3889 4caa 87bf
00000150: a649 0d2f 6e2c a83f 35a5 f078 7951 9bbf
00000160: a11b a0dc daf5 923f 7b2d 5fba 4df7 753f
00000170: 6ddb 3ca5 1532 a13f 2472 bd87 f63b b1bf
00000180: 9896 c27d 6e68 b7bf 2c02 aa17 56db bebf
00000190: fbc1 d445 6766 aa3f cc85 4b44 2d92 acbf
000001a0: 5b1f f86c 1c15 b03f 5b80 2cdc 22ab c4bf
000001b0: 21d0 b261 9ce9 a6bf ec71 96a7 bdf9 babf
000001c0: 9aba 3c60 46f7 95bf 7880 32c6 8548 a6bf
000001d0: 2ba4 8f75 bd77 993f e2a1 46f5 6708 b6bf
000001e0: ec40 b3fc 33a3 a53f 323a e8ff 48d7 b6bf
000001f0: c2a2 6e81 69fb c3bf 1471 704e df24 a1bf
00000200: 0621 2f4c 285b 913f 7f06 0859 cce0 c5bf
00000210: d324 ad03 8249 a03f 184b 6a1f 75bf ac3f
00000220: f609 fa90 a9c7 a7bf ef23 cfce 09ba b6bf
00000230: 8370 7d8e 51de 93bf 31a9 2ee1 67fb a6bf
00000240: 377e ceaf e663 93bf 5767 31cc 95c4 b53f
00000250: e6fb dac7 a23d b4bf 59b5 ede4 fa5a a33f
00000260: 784b 1978 5482 a53f 79ef bc64 0991 acbf
00000270: c486 e2bc f722 b43f ed03 99d5 8c33 bdbf
00000280: ca5a 4f7a 0b41 883f b2e6 8a9c 045b a8bf
00000290: 3029 1a74 16a8 a03f 901b 5153 a021 b6bf
000002a0: 9d98 8af7 d278 b0bf f18c 5d73 6635 8cbf
000002b0: 58f2 8596 286a 8dbf 2def cd70 ea54 c1bf
000002c0: 634c 79c9 2de1 98bf 6393 cafa 41a4 91bf
000002d0: 672e 6ca2 3413 9b3f 8abc 4ce6 8a16 963f
000002e0: 8f24 1cb3 24f0 acbf 05a2 3813 742f 833f
000002f0: 9dae 537b d222 913f 4343 2c06 ee40 c9bf
00000300: e72e bcd0 f55e a8bf c5eb 45b1 7287 a5bf
00000310: 084f 220a c79f a9bf 43aa b5bd 4deb c2bf
00000320: e5eb 3431 858f b9bf 9847 7b54 0ca9 2bbf
00000330: 1868 cb12 6b2a adbf d018 0ac5 7ae1 883f
00000340: 58eb fca9 453b 95bf e387 7c3b afe3 b0bf
00000350: 49b2 3182 6340 8d3f 1c06 583d 77d7 a73f
00000360: 162a a08a c224 863f 1ae4 f12b 4852 a7bf
00000370: 8058 102c 786f afbf d17a a4ca fb65 aebf
00000380: 0e00 0f15 716c acbf d8ee 9c19 fcf2 c0bf
00000390: 2a10 699d 078d aebf 964e 9717 15ab 8abf
000003a0: f59d 1f4e da40 9c3f 457b fd54 5add a3bf
000003b0: c956 cc0e 95fa 993f 6b47 3367 6f5c afbf
000003c0: f4b5 f581 f343 d1bf a1ae c197 669f 9cbf
000003d0: 7707 7f7e d394 6fbf 286d 4b2e edda 76bf
000003e0: 12ef 24f0 ea26 aa3f 263d 1681 147f b8bf
000003f0: 1e3c 74be ad9f 863f 06cd 6d00 b683 903f
00000400: 12f9 c949 329c bebf e40c c7e7 dd1e b13f
00000410: 2732 9a38 2ff0 acbf 9f86 ae78 a78c c5bf
00000420: b1e0 2e04 7ada babf 3d66 e4f1 ddc5 a0bf
00000430: 54c8 0000 88f7 b3bf cc33 b773 0306 b7bf
00000440: 45b2 0fcb e31c b6bf 194a a3a7 d6ee b7bf
00000450: 7c3f befa 2872 b2bf 4417 e9b0 8eb0 993f
00000460: ebe1 d5cd d142 65bf 7098 7d77 a511 a43f
00000470: 16e2 d79b 2ac7 c4bf ad36 2c4c 9c22 a4bf
00000480: 42f1 468b 9d19 bebf 4e79 692d 3a37 96bf
00000490: 8a92 bb29 362e c7bf 2821 cd18 b142 a43f
000004a0: 5b5a d46b 800d ccbf 656d 4dc8 d205 403f
000004b0: b8eb ecc3 8d1a acbf 92fa 5a3d 100f a4bf
000004c0: 4df7 194d 2daa 99bf 72cb 2607 4de8 ae3f
000004d0: 9a41 d4db d7b6 9e3f a289 e83d 4548 b6bf
000004e0: 1ecc f7e1 7e22 a33f deab 61fa 6723 ce3f
000004f0: 663d 908c c834 a73f d3d6 fc1d 2f7a 94bf
00000500: a2b5 3ab7 e0bb 743f ee22 488b f643 b6bf
00000510: b4fc aac9 d839 8d3f 6236 a078 390c ad3f
00000520: 7190 a5d9 558c 88bf c915 23da c27e 6d3f
00000530: 060a 2db6 51c0 723f 3af6 dec2 0dc9 a7bf
00000540: 01cd 062c 61b4 b83f f987 9d55 314f 83bf
00000550: 043f 1be4 e617 b4bf 986e 4cbe a60f a53f
00000560: e42a d0f6 6044 a8bf df2a f94d 79ca c5bf
00000570: 8577 0d72 52b3 ac3f 093b d973 1f85 ad3f
00000580: 8a48 80ee 1813 a83f f783 74e3 90ce 513f
00000590: 9abb b621 ced6 373f 2546 4a27 dc10 b3bf
000005a0: e8b4 3e00 ba02 c3bf 8591 b75d 5ea9 bfbf
000005b0: 6330 6525 52d4 afbf fba5 c0d8 fd0f b43f
000005c0: 0db6 c30c ef2c b8bf 3607 e052 b83a c6bf
000005d0: aa62 7a85 5d16 85bf 53e0 5b11 2b95 a33f
000005e0: fe64 a875 bae7 bcbf 485b 67a6 a71f bfbf
000005f0: 3683 9e30 d9b9 b03f 9c76 13f6 a5b0 c1bf
00000600: e8d1 14dc c551 693f df5b 5bd5 762b a8bf
00000610: 67ca eb8d 871e ab3f e4e3 eb3f 5710 b1bf
00000620: c300 e9f2 728f b3bf c3f1 24b2 1681 65bf
00000630: e465 87b5 db11 aabf 67f6 8e49 096b a6bf
00000640: 94ad b066 6e61 b6bf c298 9b6f 0508 a5bf
00000650: 99ff 1e4b 51e9 a7bf 0905 1495 f5c0 9fbf
00000660: f88a 19e7 4068 bcbf 7fe4 625e 142b aa3f
00000670: 40c2 ac10 4b3c c1bf 85e5 d829 9177 c0bf
00000680: 4764 3402 a218 903f 3aeb 11eb 6e18 be3f
00000690: 1495 7f38 0d7b a0bf 4474 3075 f09b bfbf
000006a0: a62b 6a1c d7fd 9d3f 4741 1de7 c3e2 b7bf
000006b0: 3aaa cfd2 afb9 773f 826a 1abd 729f b8bf
000006c0: 3f89 4a9b 4ef9 9d3f 96bb 23d8 10fd b23f
000006d0: ca16 9b6a 579f b7bf 4433 04d0 925a 7cbf
000006e0: 4f88 7eec 5ff9 b8bf 2a34 8e4f 8067 bebf
000006f0: 6acf 49d8 3133 afbf 05df 64c6 c831 c1bf
00000700: b606 2b8b 5998 b83f 93e6 4d10 6d7c ab3f
00000710: 1038 8f69 b072 74bf 5076 f260 f4cd b63f
00000720: daa2 7b38 2ca9 93bf e8ce 6a00 4619 a4bf
00000730: 7905 0a8f 9558 ae3f 5eff f223 11dd 853f
00000740: 284e 4816 7e53 9a3f aa40 05f6 55e5 90bf
00000750: b2f2 1302 7dc4 a63f ab8c a55e ed71 abbf
00000760: 9e96 fce0 ada5 c1bf 50bf 2921 c066 aebf
00000770: cc88 0319 47c7 b73f 3b5f f48c cafc ccbf
00000780: ab6c ef77 bd33 b1bf f679 1099 8e56 bebf
00000790: ef29 34f6 cd95 a63f b467 e331 b8f1 9dbf
000007a0: 630d e2de 3953 af3f d97f 23cb 3a96 82bf
000007b0: 21c7 6d6c 79e7 96bf 3e48 b0e1 16c4 b93f
000007c0: cab5 c225 585b bebf f8d3 7038 214c b8bf
000007d0: 3b41 8574 c573 873f 3484 075f 6736 c0bf
000007e0: 7dc1 bbf4 a494 363f e839 f5c7 64b7 acbf
000007f0: 3de0 2c0b 1673 5fbf 41c2 d9c3 3e61 c1bf

en2.bias f8 [100]
-0.054700520450062635 -0.04410585792535231 -0.17018189955568258 -0.19267620491166373 -0.014795245109572462 -0.05972189014795234 -0.028479800854487817 -0.04577483381136448
-0.21282709106149567 -0.234808805732363 0.008680501779786963 -0.028957449791269886 -0.03934580175632045 -0.18815894814737605 -0.02191711761189606 -0.03183170253528908
-0.06908942500169693 -0.05053762210658707 -0.1928856617387691 -0.03340081956269884 -0.06659782982592333 -0.03199248869333787 -0.09088555412382483 -0.06561445908140434
-0.20843028545403083 -0.03684043939281735 -0.014024466899078382 -0.057156868976299416 -0.03410267667547303 -0.027676577706647765 -0.2496789577910736 -0.020143009525431167
-0.08358916502178432 0.016959305743062168 -0.18368228594259858 -0.0011350186446570229 -0.025021799196815853 -0.05958057718165427 -0.05752966733306325 -0.034938201460000505
-0.03634553535846856 -0.016588514153374475 -0.012619567637475954 -0.022981175019842665 -0.07651968344316262 -0.04412308868383357 0.009933149059175582 -0.13957151962644498
-0.2513777374273149 -0.04599236065697815 -0.07027102640740064 -0.07446636524250384 -0.02521545437929436 -0.007760615147050997 -0.13667037326903156 -0.1362700175527131
-0.11324254508103675 -0.0576976557970565 -0.14130541811014538 -0.14672824569980286 -0.05462363539461379 -0.05768768563777742 -0.03173135546012683 -0.020938356009730024
-0.07068752007881612 -0.04432624086169176 0.012492434967505444 -0.14908617101657715 -0.003423046180446767 -0.0018125531624411482 -0.040426887959625006 -0.043538099720684724
-0.04062145274439399 0.0031998845336274613 -0.05944207687913845 -0.046187737778866624 -0.02300235450887207 -0.040078050912698296 -0.028386851953880958 -0.05059523474025379
-0.025746631754035097 -0.028477967080936712 -0.09286906493650168 -0.2097798284850923 -0.0407777365068331 -0.05623532096498931 -0.07691220387099203 -0.17205183643356806
-0.014797796287843282 -0.12384414807203413 -0.034032624260125564 -0.06103869485573162 -0.007738985433347381 -0.03746448623323681 -0.0384764453864256 -0.04587177913500431
-0.23690382617460945 -0.21607846851705434 -0.03938882122399208 0.004437629743251454
00000000: 497c d0e4 b401 acbf 16ec b302 0b95 a6bf
00000010: 7a3d 7b3e 85c8 c5bf 1110 6827 9da9 c8bf
00000020: d92a 0e2f f84c 8ebf 7bde 141a de93 aebf
00000030: 5104 1115 cf29 9dbf ef37 668c cc6f a7bf
00000040: 94ed e709 eb3d cbbf ea76 b706 370e cebf
00000050: bf72 0e3a 15c7 813f baf6 508f 05a7 9dbf
00000060: c67c 8e07 2225 a4bf 1a12 5fa8 9715 c8bf
00000070: 9c74 76dd 7071 96bf 0cea bab2 3e4c a0bf
00000080: 42b9 e134 d8af b1bf 0faf 5434 11e0 a9bf
00000090: c085 8434 7ab0 c8bf f5de 5c87 e919 a1bf
000000a0: 0040 162d 8e0c b1bf 68a2 4fc9 5161 a0bf
000000b0: a902 a492 4644 b7bf 943c e6f3 1bcc b0bf
000000c0: 5bb0 c2f5 d7ad cabf 328f b904 c0dc a2bf
000000d0: a12b 6715 dcb8 8cbf ca6b fd45 aa43 adbf
000000e0: 9bef 0df2 e775 a1bf 5d05 76b0 3f57 9cbf
000000f0: a723 1be7 7af5 cfbf 0a75 9e7c 5ea0 94bf
00000100: ec89 117a 1966 b5bf 4605 1ebe c75d 913f
00000110: 7f2e 7db1 e682 c7bf bcbf 62fd 9c98 52bf
00000120: d019 f384 509f 99bf 28ab f16c 5881 aebf
00000130: 8893 7d4f 8774 adbf b3b3 4d81 6be3 a1bf
00000140: 86c2 70cb e19b a2bf dfa5 1c57 94fc 90bf
00000150: bd48 57b2 49d8 89bf e516 898c 6088 97bf
00000160: f87e e341 cb96 b3bf 8788 ca2d 4d97 a6bf
00000170: 5ff7 d7b2 d457 843f 3cd2 1fc4 7add c1bf
00000180: b756 4ca6 9216 d0bf 086e c689 4f8c a7bf
00000190: fdb0 4630 48fd b1bf f958 5e4b 3a10 b3bf
000001a0: f5c1 a67f 14d2 99bf b208 0e44 98c9 7fbf
000001b0: a9e4 c22f 6a7e c1bf 4d39 68c2 4b71 c1bf
000001c0: 3b8c a3a3 76fd bcbf d98f 6811 8c8a adbf
000001d0: 57ed c3c2 4b16 c2bf b60d 57bc fdc7 c2bf
000001e0: 908c 370f a1f7 abbf 1672 6486 3d89 adbf
000001f0: 7e01 eb9b 173f a0bf bbd8 2c49 dd70 95bf
00000200: cc4e f9ca 9318 b2bf 3c0f b6d5 edb1 a6bf
00000210: d60f 103d a295 893f f7a9 6672 4115 c3bf
00000220: 1e18 baec a50a 6cbf ad3c 8423 66b2 5dbf
00000230: 7fcf 5443 d5b2 a4bf e753 dc34 a04a a6bf
00000240: a03a 1bc6 55cc a4bf 7f72 88ed a436 6a3f
00000250: 0a89 6720 316f aebf bd10 794e eba5 a7bf
00000260: 13ec 62e1 ed8d 97bf 7a38 ea3b 1c85 a4bf
00000270: eefd 1c63 7111 9dbf 38ee 155d 9ee7 a9bf
00000280: 7683 7635 535d 9abf f5a5 1305 5429 9dbf
00000290: 365e b65c 44c6 b7bf 621b 5abf 10da cabf
000002a0: 3a4c 67c9 d1e0 a4bf 4371 d940 e0ca acbf
000002b0: b508 4aa8 84b0 b3bf 1576 5969 cb05 c6bf
000002c0: c28d df98 4e4e 8ebf d736 c505 40b4 bfbf
000002d0: b37a 6360 b96c a1bf cb4b 64bc 7640 afbf
000002e0: f678 7215 eab2 7fbf 0c32 448e 8b2e a3bf
000002f0: f2b9 3345 2fb3 a3bf 636b 637e 817c a7bf
00000300: bfcd db54 dd52 cebf 0b44 d391 75a8 cbbf
00000310: ba56 f885 c52a a4bf 7a83 e729 312d 723f

en3.weight f8 [50, 100]
0.07410666515892679 0.04968221988586198 -0.19952716225728023 -0.07929385296146943 0.03241748153978108 0.031037941229335383 0.07040209863439914 -0.02547444651061084
-0.2535459930032767 -0.23090507157428858 -0.04284396303411278 0.1362298906706661 0.017205420473517634 -0.25068945085319533 0.0944828000518332 0.09400078262034114
0.14193886938553474 -0.11515851437070251 -0.08214361117396993 0.04623505840416735 -0.08806600494894579 -0.06096513561655944 -0.05429970266238493 -0.13165582536945847
-0.1237307620455818 -0.10136856452789475 0.02941799090384542 -0.12474530076935632 -0.10223428440459775 0.029293186906830925 -0.17348665971953328 0.07410440493074452
-0.035592649244507724 -0.009018651923873973 -0.23298334553278083 -0.09069355028771278 0.07668921428690054 -0.04698872815155386 -0.1091352446490813 -0.07333180530516813
0.08176232059039955 0.006485105435734498 0.04155878094274345 0.10150738449752747 -0.07611159598590671 -0.055439282526367005 0.03753019717916753 -0.10202050490765822
-0.19792114423611232 0.04507342065346468 -0.17527659787621142 0.07781536322073518 0.10393697474384221 0.036480598763483064 -0.09408472992560409 -0.15909850618553906
-0.171940565636567 0.13088901924499685 -0.18109095405998515 -0.17306777540979043 0.036146448556880165 -0.016301470381658793 0.046800651604616925 0.025355010319514204
0.017315651468207224 -0.10007811198178237 0.108171445678568 -0.14474914993697596 -0.005367410830884019 0.0793904562823576 0.014737025833032422 0.05163577977009892
-0.016010423776225118 -0.08116960721854116 -0.031853813632824 0.15681692443682052 -0.07822602050385247 0.06836443372726093 -0.0194024214436478 -0.02372239011610108
0.018580437928976946 0.024786317653282576 -0.05000454711898629 -0.2451488599510183 -0.10384015709217437 0.10729939622124988 0.07232940947502531 -0.2267202395417604
0.07894895297506549 -0.056687659086249245 0.12546695594647359 -0.030936052323469545 0.015919080529198732 -0.08003878599094899 0.021152222244159358 -0.025899857131521476
-0.14670927572970363 -0.1289146973185092 0.054002058010034805 0.0650101532029234 0.024139615277294798 -0.012069941074840081 -0.09675715588268693 -0.044054993855289125
0.021059638641147738 0.005648817742288221 -0.09449980467381978 -0.027950296976330953 -0.21395254881783995 -0.1103109839220031 -0.07890215766977557 0.10455909130845473
0.009832419683386736 -0.054960129844726875 -0.19368511062121552 -0.022107988770387173 0.26821876196393224 -0.2164163601482793 -0.11843802595877172 -0.05553725996441854
0.18426018080736112 0.027591101792376296 -0.03425336126508557 -0.06543359157125371 -0.08883381960331273 -0.12776481643323231 -0.0186036882254521 -0.05866093622106729
0.14073566437180898 0.09223236215934366 -0.129866063055689 -0.19015174651161282 -0.15260613438642381 0.07257335625291675 -0.13062245601733793 -0.0892920890157174
0.01859053559107099 -0.062195500839402965 0.12556576704534717 -0.11361443499905369 -0.016559665343493873 0.2822099927214178 -0.039597315073442205 0.07492928094922556
-0.12483032105444 -0.07807835584098337 -0.017075056177513363 -0.1338283651075601 -0.16778979012328465 -0.16276221970782226 -0.23482443287177351 -0.14103754754163947
-0.09972316574504007 -0.003921967763831486 -0.05511945286323066 -0.14156289808056002 -0.1397573378523919 0.09223541555365206 -0.07854826208271323 -0.16300522405137674
-0.1518919469501868 0.10111036777071472 0.2752752865229904 0.03407745707961298 0.2644329974499392 -0.015415235298630677 0.03372799818217691 -0.03555523649884387
-0.07274147861994686 0.03879404922093236 0.02589638391877368 -0.1337624740020724 -0.15270857484701564 -0.19801643310677872 -0.005894221446372802 0.1128639269496585
-0.21832034435067113 0.02937089454315048 -0.005352484771504109 -0.11259752458669907 -0.10141180605781347 0.045250875109507 0.025870995508712656 -0.20365139359926385
0.15600815249873504 -0.019614317055361454 0.025524481942769975 -0.02874344436618903 -0.22604867270285883 -0.1606031964382277 0.20711133421632713 -0.05951773136430656
0.011573461770896708 -0.09139403478741152 -0.052906802112925644 -0.09252244285131762 -0.210802775641518 -0.1869397087706509 -0.08535287176101657 -0.04239481755443687
0.055313118756498726 -0.035995119263779636 -0.21142089685572144 -0.09894334529637075 0.08342997252447801 -0.019952865722970024 0.04261420750397188 0.08036897846899566
-0.21516768212862225 -0.0534938981090911 0.17217792990468403 -0.11981302653221171 -0.2040964145848679 -0.1487233168485245 0.0020173989171259716 -0.12733053545728393
0.45015432913644043 0.11404302010123145 -0.1466130108758121 -0.05811489500874521 -0.4146192358256081 -0.18915009329489027 -0.047129464581027715 -0.579543154857285
-0.17052950649117518 -0.09872910178450947 0.03342114313548232 -0.46135061507750214 -0.08592224702990314 -0.08928292673720715 -0.22360367522535632 -0.005490567618311825
-0.05154405434211937 -0.049573933888412997 -0.1263667553744236 -0.15987019904357225 -0.052176554288970174 -0.021968117466275534 0.0481931548846319 -0.06905577503704793
0.08709908672375334 0.12843333427951487 -0.14155326588390624 -0.030525640740628777 -0.03623616922635406 0.22060567443696116 -0.21106006546908598 -0.04427895056620272
-0.13589034698115404 -0.14424508102077832 -0.3973469456457789 0.03239148217053442 0.0879923239829761 -0.1189814574308533 -0.059102033594580945 -0.21481948404012935
00000000: 4df1 4587 a7f8 b23f 6275 34ab f26f a93f
00000010: 9e83 4726 1b8a c9bf ca4b 3e19 9a4c b4bf
00000020: 0068 102e 0699 a03f 8c87 0ffa 68c8 9f3f
00000030: ce5a 3437 df05 b23f 274c 962a f915 9abf
00000040: 5dc7 fef8 183a d0bf 9e30 7221 4c8e cdbf
00000050: 3406 20d8 a4ef a5bf 7a86 9526 fb6f c13f
00000060: aea1 fd38 4c9e 913f 9377 37c4 4b0b d0bf
00000070: 51d3 4158 0630 b83f f61b 276f 6f10 b83f
00000080: 1e63 0589 0d2b c23f 3cff 1345 077b bdbf
00000090: 5e4a 911b 5d07 b5bf a691 8c1f 1fac a73f
000000a0: 0825 2563 7e8b b6bf 1bb2 567f d236 afbf
000000b0: b024 3cae 2bcd abbf 4215 251c 19da c0bf
000000c0: dbb3 7eb8 d1ac bfbf ce61 7d4d 4af3 b9bf
000000d0: b858 62f3 bf1f 9e3f 5952 22db 4eef bfbf
000000e0: bc36 0cac 062c babf 83b4 0a7f 08ff 9d3f
000000f0: 91d2 e494 cf34 c6bf 56c6 aa9b 81f8 b23f
00000100: b860 f720 3339 a2bf 844f 89f8 5e78 82bf
00000110: 1ab9 c9f4 65d2 cdbf aaa0 7148 b137 b7bf
00000120: d673 5183 e7a1 b33f f013 6215 e80e a8bf
00000130: e7d7 9b92 49f0 bbbf 8fd6 8a89 dfc5 b2bf
00000140: e717 fb1c 60ee b43f 4318 1f3c 2090 7a3f
00000150: ef7b 054a 3147 a53f 2629 b850 63fc b93f
00000160: f317 9baf 0c7c b3bf 4399 baa2 8962 acbf
00000170: 0471 fe72 2837 a33f 778c 190c 041e babf
00000180: 0d2b d7e4 7a55 c9bf 253f 4007 dd13 a73f
00000190: d0f4 d0ab 766f c6bf accf 2828 b5eb b33f
000001a0: 07b7 5e13 9d9b ba3f 5d5c 41c5 95ad a23f
000001b0: c55d 15d6 ef15 b8bf 6265 7400 575d c4bf
000001c0: dce4 2101 2602 c6bf 0c09 88ac f8c0 c03f
000001d0: 6600 a506 fd2d c7bf e731 b0b9 1527 c6bf
000001e0: 8a31 d68c c981 a23f 6eeb a928 55b1 90bf
000001f0: 268a 2548 41f6 a73f d0be 72f0 a9f6 993f
00000200: dc3d 0fb3 31bb 913f 9ed6 011a b89e b9bf
00000210: ebec 8cb5 1fb1 bb3f c832 8de0 2387 c2bf
00000220: a2b9 b95f 23fc 75bf f5e4 58d5 ee52 b43f
00000230: 1809 f21f 722e 8e3f 5002 d542 0170 aa3f
00000240: cb52 0e5a 0965 90bf f8cb 6e08 88c7 b4bf
00000250: 6d99 9c9f 244f a0bf 612d f5b4 9312 c43f
00000260: 2ca1 c2d7 9e06 b4bf f571 11df 5480 b13f
00000270: 6334 4176 3ade 93bf 972a eda6 ae4a 98bf
00000280: 4d52 0015 c006 933f 8a22 d69e 9561 993f
00000290: 22ff 0d2d 329a a9bf 5f16 12b0 0961 cfbf
000002a0: a4ee b8be 4495 babf c39b a625 f977 bb3f
000002b0: 40f6 3b20 2e84 b23f ae29 1637 2b05 cdbf
000002c0: 3cd3 14a3 ff35 b43f 3a77 b933 2a06 adbf
000002d0: 4767 421c 4d0f c03f e790 fc53 b3ad 9fbf
000002e0: 156d 0569 174d 903f 8c1f 3e00 6c7d b4bf
000002f0: 8005 1b9b eda8 953f 4d61 67fd 7d85 9abf
00000300: c5b3 a39a 5ec7 c2bf 5376 7adc 4680 c0bf
00000310: 15bc 2362 28a6 ab3f 0b1d ea61 81a4 b03f
00000320: ffb2 9d28 0eb8 983f d1dc 7211 20b8 88bf
00000330: 9e8c 2bb4 13c5 b8bf 33fb aa4b 608e a6bf
00000340: 90cf ea6c a890 953f 1455 6df7 3623 773f
00000350: f76c 8da2 2331 b8bf b212 b5ad 009f 9cbf
00000360: 7fc3 0810 cc62 cbbf 5fa7 5534 573d bcbf
00000370: 9688 c68a ee32 b4bf a656 ab75 62c4 ba3f
00000380: 6b75 d807 0523 843f 41b6 88f0 bb23 acbf
00000390: bc8d eb77 acca c8bf b220 ff02 7aa3 96bf
000003a0: b4c1 b306 7f2a d13f eefe 9302 88b3 cbbf
000003b0: 5781 1858 f451 bebf b664 8336 616f acbf
000003c0: 9ee6 426d d695 c73f d479 6f7f d740 9c3f
000003d0: 4bbf d214 a889 a1bf 37bd db7f 41c0 b0bf
000003e0: 1199 f92d d0bd b6bf a780 14f6 985a c0bf
000003f0: be9d 0d62 d80c 93bf 6394 3e65 ce08 aebf
00000400: d1ca ed51 a003 c23f 0c72 1b43 8a9c b73f
00000410: 539c d77e 739f c0bf 64b7 4576 e456 c8bf
00000420: f1e8 2d0a 9988 c3bf e2cf aadf 2a94 b23f
00000430: 71dc 5b94 3cb8 c0bf e130 1daa d8db b6bf
00000440: 50dd 83b9 6509 933f 128d 20b4 16d8 afbf
00000450: 607c 7aff 8912 c03f faa8 acea d515 bdbf
00000460: c800 5554 04f5 90bf def1 5580 ba0f d23f
00000470: 4eeb 7f6a 1946 a4bf 7791 30bb 902e b33f
00000480: 365e 7a42 e1f4 bfbf 1bcb dc70 f1fc b3bf
00000490: de6a 709f 1f7c 91bf d301 b5b1 4921 c1bf
000004a0: b452 97c6 227a c5bf f9b0 5575 64d5 c4bf
000004b0: ba35 be1d ba0e cebf 8185 19b3 840d c2bf
000004c0: 0b4e 8717 7587 b9bf 9486 8134 7b10 70bf
000004d0: e78b d7ee 9d38 acbf 4d9f caa8 bb1e c2bf
000004e0: a5dc b985 91e3 c1bf e4fd 557d bd9c b73f
000004f0: 368a cd28 bd1b b4bf 445c 30ed 5add c4bf
00000500: 03a2 5600 3271 c3bf ca9b dc7a 5ee2 b93f
00000510: 78d9 403c 1c9e d13f e324 60b7 9972 a13f
00000520: a6f7 0161 78ec d03f d1fa bddb 0592 8fbf
00000530: 96d2 4dd2 cb44 a13f e49b edc3 4b34 a2bf
00000540: 3940 bc7f 2f9f b2bf f5db 5d49 d0dc a33f
00000550: 1d2c 10e8 9484 9a3f 87ae a2f5 201f c1bf
00000560: 99b2 645f f48b c3bf dbd0 213c 9a58 c9bf
00000570: bd93 8f05 8a24 78bf 4e9c 257b a6e4 bc3f
00000580: c7cf 84c9 ebf1 cbbf a981 115e 6713 9e3f
00000590: 2934 bcb0 7cec 75bf a3de b5fd 30d3 bcbf
000005a0: 9c54 72c6 1ff6 b9bf 92e2 6b69 1f2b a73f
000005b0: 86e1 7f1e ed7d 9a3f b796 a5b5 3f11 cabf
000005c0: f51a 723c 13f8 c33f 2705 2589 c615 94bf
000005d0: f422 c4fc 1623 9a3f 60d4 1be6 eb6e 9dbf
000005e0: f20f 48b4 29ef ccbf 87e9 2a42 a58e c4bf
000005f0: c986 8bcb 9f82 ca3f 8ace 7bab 1b79 aebf
00000600: 8cc6 75be d3b3 873f 8b1f 7676 9965 b7bf
00000610: 1036 9fb1 9916 abbf a143 3102 8daf b7bf
00000620: f6a6 a4d9 95fb cabf e331 bfef a3ed c7bf
00000630: bf4f d590 afd9 b5bf 4217 d505 c6b4 a5bf
00000640: 75a6 3248 0052 ac3f 516b 1bc8 f36d a2bf
00000650: 19d9 d706 d70f cbbf 5a6a 34e0 5954 b9bf
00000660: 1eb2 7fab aa5b b53f 566f f726 866e 94bf
00000670: 1827 2687 87d1 a53f c423 23b6 0f93 b43f
00000680: e403 f356 9d8a cbbf 3f05 d45d 8d63 abbf
00000690: f34c 0429 ed09 c63f 8033 9706 11ac bebf
000006a0: 0bba efd0 d41f cabf f92e 029b 5d09 c3bf
000006b0: 56c4 e7cb ca86 603f 2d1d c9f2 5d4c c0bf
000006c0: 23ce 721a 54cf dc3f fffe ab61 ec31 bd3f
000006d0: 2f9a 7013 37c4 c2bf 8e31 f24a 3cc1 adbf
000006e0: c276 8a1e 1f89 dabf d352 5efc 1136 c8bf
000006f0: ed64 1b6a 5a21 a8bf 4d72 1716 9e8b e2bf
00000700: 99f9 b02e e9d3 c5bf caf2 5377 4f46 b9bf
00000710: c60e 8679 931c a13f afd4 efba c486 ddbf
00000720: 3805 fe18 00ff b5bf 976e 6df2 3edb b6bf
00000730: 21dd 2d94 0b9f ccbf a6c9 b605 477d 76bf
00000740: adc1 6777 fb63 aabf 4cd1 9131 c161 a9bf
00000750: 8640 d12c c92c c0bf b8a2 3f6e a076 c4bf
00000760: 5104 94a4 e2b6 aabf 7213 4a68 cf7e 96bf
00000770: 9ab9 3df0 c5ac a83f 5e51 62a7 a3ad b1bf
00000780: e16f fd30 204c b63f 2c2f 39e5 8070 c03f
00000790: e782 cedb 6a1e c2bf 5989 ae12 1d42 9fbf
000007a0: ccde 8413 8c8d a2bf 1a67 8286 ce3c cc3f
000007b0: 4136 5727 0404 cbbf 6684 2a09 bbab a6bf
000007c0: a625 10da da64 c1bf 22eb cb70 9f76 c2bf
000007d0: fab3 2de2 216e d9bf 9ccd 2ec9 9d95 a03f
000007e0: b250 ce39 aa86 b63f 57f5 7e9c 9175 bebf
000007f0: 29e6 d42a 9f42 aebf 467b 3f71 347f cbbf
